{"weightsManifest": [{"weights": [{"name": "normal_A_block_0/adjust_block/adjust_reduction_block_0/adjust_bn_0/gamma", "shape": [44], "dtype": "float32"}, {"name": "normal_A_block_0/adjust_block/adjust_reduction_block_0/adjust_bn_0/beta", "shape": [44], "dtype": "float32"}, {"name": "normal_A_block_0/adjust_block/adjust_reduction_block_0/adjust_bn_0/moving_mean", "shape": [44], "dtype": "float32"}, {"name": "normal_A_block_0/adjust_block/adjust_reduction_block_0/adjust_bn_0/moving_variance", "shape": [44], "dtype": "float32"}, {"name": "normal_A_block_1/adjust_block/adjust_projection_block_1/adjust_bn_1/gamma", "shape": [44], "dtype": "float32"}, {"name": "normal_A_block_1/adjust_block/adjust_projection_block_1/adjust_bn_1/beta", "shape": [44], "dtype": "float32"}, {"name": "normal_A_block_1/adjust_block/adjust_projection_block_1/adjust_bn_1/moving_mean", "shape": [44], "dtype": "float32"}, {"name": "normal_A_block_1/adjust_block/adjust_projection_block_1/adjust_bn_1/moving_variance", "shape": [44], "dtype": "float32"}, {"name": "normal_A_block_10/adjust_block/adjust_projection_block_10/adjust_bn_10/gamma", "shape": [176], "dtype": "float32"}, {"name": "normal_A_block_10/adjust_block/adjust_projection_block_10/adjust_bn_10/beta", "shape": [176], "dtype": "float32"}, {"name": "normal_A_block_10/adjust_block/adjust_projection_block_10/adjust_bn_10/moving_mean", "shape": [176], "dtype": "float32"}, {"name": "normal_A_block_10/adjust_block/adjust_projection_block_10/adjust_bn_10/moving_variance", "shape": [176], "dtype": "float32"}, {"name": "normal_A_block_11/adjust_block/adjust_projection_block_11/adjust_bn_11/gamma", "shape": [176], "dtype": "float32"}, {"name": "normal_A_block_11/adjust_block/adjust_projection_block_11/adjust_bn_11/beta", "shape": [176], "dtype": "float32"}, {"name": "normal_A_block_11/adjust_block/adjust_projection_block_11/adjust_bn_11/moving_mean", "shape": [176], "dtype": "float32"}, {"name": "normal_A_block_11/adjust_block/adjust_projection_block_11/adjust_bn_11/moving_variance", "shape": [176], "dtype": "float32"}, {"name": "normal_A_block_12/adjust_block/adjust_projection_block_12/adjust_bn_12/gamma", "shape": [176], "dtype": "float32"}, {"name": "normal_A_block_12/adjust_block/adjust_projection_block_12/adjust_bn_12/beta", "shape": [176], "dtype": "float32"}, {"name": "normal_A_block_12/adjust_block/adjust_projection_block_12/adjust_bn_12/moving_mean", "shape": [176], "dtype": "float32"}, {"name": "normal_A_block_12/adjust_block/adjust_projection_block_12/adjust_bn_12/moving_variance", "shape": [176], "dtype": "float32"}, {"name": "normal_A_block_2/adjust_block/adjust_projection_block_2/adjust_bn_2/gamma", "shape": [44], "dtype": "float32"}, {"name": "normal_A_block_2/adjust_block/adjust_projection_block_2/adjust_bn_2/beta", "shape": [44], "dtype": "float32"}, {"name": "normal_A_block_2/adjust_block/adjust_projection_block_2/adjust_bn_2/moving_mean", "shape": [44], "dtype": "float32"}, {"name": "normal_A_block_2/adjust_block/adjust_projection_block_2/adjust_bn_2/moving_variance", "shape": [44], "dtype": "float32"}, {"name": "normal_A_block_3/adjust_block/adjust_projection_block_3/adjust_bn_3/gamma", "shape": [44], "dtype": "float32"}, {"name": "normal_A_block_3/adjust_block/adjust_projection_block_3/adjust_bn_3/beta", "shape": [44], "dtype": "float32"}, {"name": "normal_A_block_3/adjust_block/adjust_projection_block_3/adjust_bn_3/moving_mean", "shape": [44], "dtype": "float32"}, {"name": "normal_A_block_3/adjust_block/adjust_projection_block_3/adjust_bn_3/moving_variance", "shape": [44], "dtype": "float32"}, {"name": "normal_A_block_5/adjust_block/adjust_reduction_block_5/adjust_bn_5/gamma", "shape": [88], "dtype": "float32"}, {"name": "normal_A_block_5/adjust_block/adjust_reduction_block_5/adjust_bn_5/beta", "shape": [88], "dtype": "float32"}, {"name": "normal_A_block_5/adjust_block/adjust_reduction_block_5/adjust_bn_5/moving_mean", "shape": [88], "dtype": "float32"}, {"name": "normal_A_block_5/adjust_block/adjust_reduction_block_5/adjust_bn_5/moving_variance", "shape": [88], "dtype": "float32"}, {"name": "normal_A_block_6/adjust_block/adjust_projection_block_6/adjust_bn_6/gamma", "shape": [88], "dtype": "float32"}, {"name": "normal_A_block_6/adjust_block/adjust_projection_block_6/adjust_bn_6/beta", "shape": [88], "dtype": "float32"}, {"name": "normal_A_block_6/adjust_block/adjust_projection_block_6/adjust_bn_6/moving_mean", "shape": [88], "dtype": "float32"}, {"name": "normal_A_block_6/adjust_block/adjust_projection_block_6/adjust_bn_6/moving_variance", "shape": [88], "dtype": "float32"}, {"name": "normal_A_block_7/adjust_block/adjust_projection_block_7/adjust_bn_7/gamma", "shape": [88], "dtype": "float32"}, {"name": "normal_A_block_7/adjust_block/adjust_projection_block_7/adjust_bn_7/beta", "shape": [88], "dtype": "float32"}, {"name": "normal_A_block_7/adjust_block/adjust_projection_block_7/adjust_bn_7/moving_mean", "shape": [88], "dtype": "float32"}, {"name": "normal_A_block_7/adjust_block/adjust_projection_block_7/adjust_bn_7/moving_variance", "shape": [88], "dtype": "float32"}, {"name": "normal_A_block_8/adjust_block/adjust_projection_block_8/adjust_bn_8/gamma", "shape": [88], "dtype": "float32"}, {"name": "normal_A_block_8/adjust_block/adjust_projection_block_8/adjust_bn_8/beta", "shape": [88], "dtype": "float32"}, {"name": "normal_A_block_8/adjust_block/adjust_projection_block_8/adjust_bn_8/moving_mean", "shape": [88], "dtype": "float32"}, {"name": "normal_A_block_8/adjust_block/adjust_projection_block_8/adjust_bn_8/moving_variance", "shape": [88], "dtype": "float32"}, {"name": "normal_A_block_9/adjust_block/adjust_reduction_block_9/adjust_bn_9/gamma", "shape": [176], "dtype": "float32"}, {"name": "normal_A_block_9/adjust_block/adjust_reduction_block_9/adjust_bn_9/beta", "shape": [176], "dtype": "float32"}, {"name": "normal_A_block_9/adjust_block/adjust_reduction_block_9/adjust_bn_9/moving_mean", "shape": [176], "dtype": "float32"}, {"name": "normal_A_block_9/adjust_block/adjust_reduction_block_9/adjust_bn_9/moving_variance", "shape": [176], "dtype": "float32"}, {"name": "reduction_A_block_reduce_4/adjust_block/adjust_projection_block_reduce_4/adjust_bn_reduce_4/gamma", "shape": [88], "dtype": "float32"}, {"name": "reduction_A_block_reduce_4/adjust_block/adjust_projection_block_reduce_4/adjust_bn_reduce_4/beta", "shape": [88], "dtype": "float32"}, {"name": "reduction_A_block_reduce_4/adjust_block/adjust_projection_block_reduce_4/adjust_bn_reduce_4/moving_mean", "shape": [88], "dtype": "float32"}, {"name": "reduction_A_block_reduce_4/adjust_block/adjust_projection_block_reduce_4/adjust_bn_reduce_4/moving_variance", "shape": [88], "dtype": "float32"}, {"name": "reduction_A_block_reduce_8/adjust_block/adjust_projection_block_reduce_8/adjust_bn_reduce_8/gamma", "shape": [176], "dtype": "float32"}, {"name": "reduction_A_block_reduce_8/adjust_block/adjust_projection_block_reduce_8/adjust_bn_reduce_8/beta", "shape": [176], "dtype": "float32"}, {"name": "reduction_A_block_reduce_8/adjust_block/adjust_projection_block_reduce_8/adjust_bn_reduce_8/moving_mean", "shape": [176], "dtype": "float32"}, {"name": "reduction_A_block_reduce_8/adjust_block/adjust_projection_block_reduce_8/adjust_bn_reduce_8/moving_variance", "shape": [176], "dtype": "float32"}, {"name": "reduction_A_block_stem_2/adjust_block/adjust_reduction_block_stem_2/adjust_bn_stem_2/gamma", "shape": [22], "dtype": "float32"}, {"name": "reduction_A_block_stem_2/adjust_block/adjust_reduction_block_stem_2/adjust_bn_stem_2/beta", "shape": [22], "dtype": "float32"}, {"name": "reduction_A_block_stem_2/adjust_block/adjust_reduction_block_stem_2/adjust_bn_stem_2/moving_mean", "shape": [22], "dtype": "float32"}, {"name": "reduction_A_block_stem_2/adjust_block/adjust_reduction_block_stem_2/adjust_bn_stem_2/moving_variance", "shape": [22], "dtype": "float32"}, {"name": "normal_A_block_0/adjust_block/adjust_reduction_block_0/adjust_conv_1_0/kernel", "shape": [1, 1, 44, 22], "dtype": "float32"}, {"name": "normal_A_block_5/adjust_block/adjust_reduction_block_5/adjust_conv_1_5/kernel", "shape": [1, 1, 264, 44], "dtype": "float32"}, {"name": "normal_A_block_9/adjust_block/adjust_reduction_block_9/adjust_conv_1_9/kernel", "shape": [1, 1, 528, 88], "dtype": "float32"}, {"name": "reduction_A_block_stem_2/adjust_block/adjust_reduction_block_stem_2/adjust_conv_1_stem_2/kernel", "shape": [1, 1, 32, 11], "dtype": "float32"}, {"name": "normal_A_block_0/adjust_block/adjust_reduction_block_0/adjust_conv_2_0/kernel", "shape": [1, 1, 44, 22], "dtype": "float32"}, {"name": "normal_A_block_5/adjust_block/adjust_reduction_block_5/adjust_conv_2_5/kernel", "shape": [1, 1, 264, 44], "dtype": "float32"}, {"name": "normal_A_block_9/adjust_block/adjust_reduction_block_9/adjust_conv_2_9/kernel", "shape": [1, 1, 528, 88], "dtype": "float32"}, {"name": "reduction_A_block_stem_2/adjust_block/adjust_reduction_block_stem_2/adjust_conv_2_stem_2/kernel", "shape": [1, 1, 32, 11], "dtype": "float32"}, {"name": "normal_A_block_1/adjust_block/adjust_projection_block_1/adjust_conv_projection_1/kernel", "shape": [1, 1, 88, 44], "dtype": "float32"}, {"name": "normal_A_block_10/adjust_block/adjust_projection_block_10/adjust_conv_projection_10/kernel", "shape": [1, 1, 704, 176], "dtype": "float32"}, {"name": "normal_A_block_11/adjust_block/adjust_projection_block_11/adjust_conv_projection_11/kernel", "shape": [1, 1, 1056, 176], "dtype": "float32"}, {"name": "normal_A_block_12/adjust_block/adjust_projection_block_12/adjust_conv_projection_12/kernel", "shape": [1, 1, 1056, 176], "dtype": "float32"}, {"name": "normal_A_block_2/adjust_block/adjust_projection_block_2/adjust_conv_projection_2/kernel", "shape": [1, 1, 264, 44], "dtype": "float32"}, {"name": "normal_A_block_3/adjust_block/adjust_projection_block_3/adjust_conv_projection_3/kernel", "shape": [1, 1, 264, 44], "dtype": "float32"}, {"name": "normal_A_block_6/adjust_block/adjust_projection_block_6/adjust_conv_projection_6/kernel", "shape": [1, 1, 352, 88], "dtype": "float32"}, {"name": "normal_A_block_7/adjust_block/adjust_projection_block_7/adjust_conv_projection_7/kernel", "shape": [1, 1, 528, 88], "dtype": "float32"}, {"name": "normal_A_block_8/adjust_block/adjust_projection_block_8/adjust_conv_projection_8/kernel", "shape": [1, 1, 528, 88], "dtype": "float32"}, {"name": "reduction_A_block_reduce_4/adjust_block/adjust_projection_block_reduce_4/adjust_conv_projection_reduce_4/kernel", "shape": [1, 1, 264, 88], "dtype": "float32"}, {"name": "reduction_A_block_reduce_8/adjust_block/adjust_projection_block_reduce_8/adjust_conv_projection_reduce_8/kernel", "shape": [1, 1, 528, 176], "dtype": "float32"}, {"name": "dense_1/kernel", "shape": [1056, 1024], "dtype": "float32"}, {"name": "dense_1/bias", "shape": [1024], "dtype": "float32"}, {"name": "dense_2/kernel", "shape": [1024, 2], "dtype": "float32"}, {"name": "dense_2/bias", "shape": [2], "dtype": "float32"}, {"name": "normal_A_block_0/normal_bn_1_0/gamma", "shape": [44], "dtype": "float32"}, {"name": "normal_A_block_0/normal_bn_1_0/beta", "shape": [44], "dtype": "float32"}, {"name": "normal_A_block_0/normal_bn_1_0/moving_mean", "shape": [44], "dtype": "float32"}, {"name": "normal_A_block_0/normal_bn_1_0/moving_variance", "shape": [44], "dtype": "float32"}, {"name": "normal_A_block_1/normal_bn_1_1/gamma", "shape": [44], "dtype": "float32"}, {"name": "normal_A_block_1/normal_bn_1_1/beta", "shape": [44], "dtype": "float32"}, {"name": "normal_A_block_1/normal_bn_1_1/moving_mean", "shape": [44], "dtype": "float32"}, {"name": "normal_A_block_1/normal_bn_1_1/moving_variance", "shape": [44], "dtype": "float32"}, {"name": "normal_A_block_10/normal_bn_1_10/gamma", "shape": [176], "dtype": "float32"}, {"name": "normal_A_block_10/normal_bn_1_10/beta", "shape": [176], "dtype": "float32"}, {"name": "normal_A_block_10/normal_bn_1_10/moving_mean", "shape": [176], "dtype": "float32"}, {"name": "normal_A_block_10/normal_bn_1_10/moving_variance", "shape": [176], "dtype": "float32"}, {"name": "normal_A_block_11/normal_bn_1_11/gamma", "shape": [176], "dtype": "float32"}, {"name": "normal_A_block_11/normal_bn_1_11/beta", "shape": [176], "dtype": "float32"}, {"name": "normal_A_block_11/normal_bn_1_11/moving_mean", "shape": [176], "dtype": "float32"}, {"name": "normal_A_block_11/normal_bn_1_11/moving_variance", "shape": [176], "dtype": "float32"}, {"name": "normal_A_block_12/normal_bn_1_12/gamma", "shape": [176], "dtype": "float32"}, {"name": "normal_A_block_12/normal_bn_1_12/beta", "shape": [176], "dtype": "float32"}, {"name": "normal_A_block_12/normal_bn_1_12/moving_mean", "shape": [176], "dtype": "float32"}, {"name": "normal_A_block_12/normal_bn_1_12/moving_variance", "shape": [176], "dtype": "float32"}, {"name": "normal_A_block_2/normal_bn_1_2/gamma", "shape": [44], "dtype": "float32"}, {"name": "normal_A_block_2/normal_bn_1_2/beta", "shape": [44], "dtype": "float32"}, {"name": "normal_A_block_2/normal_bn_1_2/moving_mean", "shape": [44], "dtype": "float32"}, {"name": "normal_A_block_2/normal_bn_1_2/moving_variance", "shape": [44], "dtype": "float32"}, {"name": "normal_A_block_3/normal_bn_1_3/gamma", "shape": [44], "dtype": "float32"}, {"name": "normal_A_block_3/normal_bn_1_3/beta", "shape": [44], "dtype": "float32"}, {"name": "normal_A_block_3/normal_bn_1_3/moving_mean", "shape": [44], "dtype": "float32"}, {"name": "normal_A_block_3/normal_bn_1_3/moving_variance", "shape": [44], "dtype": "float32"}, {"name": "normal_A_block_5/normal_bn_1_5/gamma", "shape": [88], "dtype": "float32"}, {"name": "normal_A_block_5/normal_bn_1_5/beta", "shape": [88], "dtype": "float32"}, {"name": "normal_A_block_5/normal_bn_1_5/moving_mean", "shape": [88], "dtype": "float32"}, {"name": "normal_A_block_5/normal_bn_1_5/moving_variance", "shape": [88], "dtype": "float32"}, {"name": "normal_A_block_6/normal_bn_1_6/gamma", "shape": [88], "dtype": "float32"}, {"name": "normal_A_block_6/normal_bn_1_6/beta", "shape": [88], "dtype": "float32"}, {"name": "normal_A_block_6/normal_bn_1_6/moving_mean", "shape": [88], "dtype": "float32"}, {"name": "normal_A_block_6/normal_bn_1_6/moving_variance", "shape": [88], "dtype": "float32"}, {"name": "normal_A_block_7/normal_bn_1_7/gamma", "shape": [88], "dtype": "float32"}, {"name": "normal_A_block_7/normal_bn_1_7/beta", "shape": [88], "dtype": "float32"}, {"name": "normal_A_block_7/normal_bn_1_7/moving_mean", "shape": [88], "dtype": "float32"}, {"name": "normal_A_block_7/normal_bn_1_7/moving_variance", "shape": [88], "dtype": "float32"}, {"name": "normal_A_block_8/normal_bn_1_8/gamma", "shape": [88], "dtype": "float32"}, {"name": "normal_A_block_8/normal_bn_1_8/beta", "shape": [88], "dtype": "float32"}, {"name": "normal_A_block_8/normal_bn_1_8/moving_mean", "shape": [88], "dtype": "float32"}, {"name": "normal_A_block_8/normal_bn_1_8/moving_variance", "shape": [88], "dtype": "float32"}, {"name": "normal_A_block_9/normal_bn_1_9/gamma", "shape": [176], "dtype": "float32"}, {"name": "normal_A_block_9/normal_bn_1_9/beta", "shape": [176], "dtype": "float32"}, {"name": "normal_A_block_9/normal_bn_1_9/moving_mean", "shape": [176], "dtype": "float32"}, {"name": "normal_A_block_9/normal_bn_1_9/moving_variance", "shape": [176], "dtype": "float32"}, {"name": "normal_A_block_0/normal_conv_1_0/kernel", "shape": [1, 1, 88, 44], "dtype": "float32"}, {"name": "normal_A_block_1/normal_conv_1_1/kernel", "shape": [1, 1, 264, 44], "dtype": "float32"}, {"name": "normal_A_block_10/normal_conv_1_10/kernel", "shape": [1, 1, 1056, 176], "dtype": "float32"}, {"name": "normal_A_block_11/normal_conv_1_11/kernel", "shape": [1, 1, 1056, 176], "dtype": "float32"}, {"name": "normal_A_block_12/normal_conv_1_12/kernel", "shape": [1, 1, 1056, 176], "dtype": "float32"}, {"name": "normal_A_block_2/normal_conv_1_2/kernel", "shape": [1, 1, 264, 44], "dtype": "float32"}, {"name": "normal_A_block_3/normal_conv_1_3/kernel", "shape": [1, 1, 264, 44], "dtype": "float32"}, {"name": "normal_A_block_5/normal_conv_1_5/kernel", "shape": [1, 1, 352, 88], "dtype": "float32"}, {"name": "normal_A_block_6/normal_conv_1_6/kernel", "shape": [1, 1, 528, 88], "dtype": "float32"}, {"name": "normal_A_block_7/normal_conv_1_7/kernel", "shape": [1, 1, 528, 88], "dtype": "float32"}, {"name": "normal_A_block_8/normal_conv_1_8/kernel", "shape": [1, 1, 528, 88], "dtype": "float32"}, {"name": "normal_A_block_9/normal_conv_1_9/kernel", "shape": [1, 1, 704, 176], "dtype": "float32"}, {"name": "reduction_A_block_reduce_4/reduction_bn_1_reduce_4/gamma", "shape": [88], "dtype": "float32"}, {"name": "reduction_A_block_reduce_4/reduction_bn_1_reduce_4/beta", "shape": [88], "dtype": "float32"}, {"name": "reduction_A_block_reduce_4/reduction_bn_1_reduce_4/moving_mean", "shape": [88], "dtype": "float32"}, {"name": "reduction_A_block_reduce_4/reduction_bn_1_reduce_4/moving_variance", "shape": [88], "dtype": "float32"}, {"name": "reduction_A_block_reduce_8/reduction_bn_1_reduce_8/gamma", "shape": [176], "dtype": "float32"}, {"name": "reduction_A_block_reduce_8/reduction_bn_1_reduce_8/beta", "shape": [176], "dtype": "float32"}, {"name": "reduction_A_block_reduce_8/reduction_bn_1_reduce_8/moving_mean", "shape": [176], "dtype": "float32"}, {"name": "reduction_A_block_reduce_8/reduction_bn_1_reduce_8/moving_variance", "shape": [176], "dtype": "float32"}, {"name": "reduction_A_block_stem_1/reduction_bn_1_stem_1/gamma", "shape": [11], "dtype": "float32"}, {"name": "reduction_A_block_stem_1/reduction_bn_1_stem_1/beta", "shape": [11], "dtype": "float32"}, {"name": "reduction_A_block_stem_1/reduction_bn_1_stem_1/moving_mean", "shape": [11], "dtype": "float32"}, {"name": "reduction_A_block_stem_1/reduction_bn_1_stem_1/moving_variance", "shape": [11], "dtype": "float32"}, {"name": "reduction_A_block_stem_2/reduction_bn_1_stem_2/gamma", "shape": [22], "dtype": "float32"}, {"name": "reduction_A_block_stem_2/reduction_bn_1_stem_2/beta", "shape": [22], "dtype": "float32"}, {"name": "reduction_A_block_stem_2/reduction_bn_1_stem_2/moving_mean", "shape": [22], "dtype": "float32"}, {"name": "reduction_A_block_stem_2/reduction_bn_1_stem_2/moving_variance", "shape": [22], "dtype": "float32"}, {"name": "reduction_A_block_reduce_4/reduction_conv_1_reduce_4/kernel", "shape": [1, 1, 264, 88], "dtype": "float32"}, {"name": "reduction_A_block_reduce_8/reduction_conv_1_reduce_8/kernel", "shape": [1, 1, 528, 176], "dtype": "float32"}, {"name": "reduction_A_block_stem_1/reduction_conv_1_stem_1/kernel", "shape": [1, 1, 32, 11], "dtype": "float32"}, {"name": "reduction_A_block_stem_2/reduction_conv_1_stem_2/kernel", "shape": [1, 1, 44, 22], "dtype": "float32"}, {"name": "normal_A_block_0/block_1/separable_conv_block_normal_left1_0/separable_conv_1_bn_normal_left1_0/gamma", "shape": [44], "dtype": "float32"}, {"name": "normal_A_block_0/block_1/separable_conv_block_normal_left1_0/separable_conv_1_bn_normal_left1_0/beta", "shape": [44], "dtype": "float32"}, {"name": "normal_A_block_0/block_1/separable_conv_block_normal_left1_0/separable_conv_1_bn_normal_left1_0/moving_mean", "shape": [44], "dtype": "float32"}, {"name": "normal_A_block_0/block_1/separable_conv_block_normal_left1_0/separable_conv_1_bn_normal_left1_0/moving_variance", "shape": [44], "dtype": "float32"}, {"name": "normal_A_block_1/block_1/separable_conv_block_normal_left1_1/separable_conv_1_bn_normal_left1_1/gamma", "shape": [44], "dtype": "float32"}, {"name": "normal_A_block_1/block_1/separable_conv_block_normal_left1_1/separable_conv_1_bn_normal_left1_1/beta", "shape": [44], "dtype": "float32"}, {"name": "normal_A_block_1/block_1/separable_conv_block_normal_left1_1/separable_conv_1_bn_normal_left1_1/moving_mean", "shape": [44], "dtype": "float32"}, {"name": "normal_A_block_1/block_1/separable_conv_block_normal_left1_1/separable_conv_1_bn_normal_left1_1/moving_variance", "shape": [44], "dtype": "float32"}, {"name": "normal_A_block_10/block_1/separable_conv_block_normal_left1_10/separable_conv_1_bn_normal_left1_10/gamma", "shape": [176], "dtype": "float32"}, {"name": "normal_A_block_10/block_1/separable_conv_block_normal_left1_10/separable_conv_1_bn_normal_left1_10/beta", "shape": [176], "dtype": "float32"}, {"name": "normal_A_block_10/block_1/separable_conv_block_normal_left1_10/separable_conv_1_bn_normal_left1_10/moving_mean", "shape": [176], "dtype": "float32"}, {"name": "normal_A_block_10/block_1/separable_conv_block_normal_left1_10/separable_conv_1_bn_normal_left1_10/moving_variance", "shape": [176], "dtype": "float32"}, {"name": "normal_A_block_11/block_1/separable_conv_block_normal_left1_11/separable_conv_1_bn_normal_left1_11/gamma", "shape": [176], "dtype": "float32"}, {"name": "normal_A_block_11/block_1/separable_conv_block_normal_left1_11/separable_conv_1_bn_normal_left1_11/beta", "shape": [176], "dtype": "float32"}, {"name": "normal_A_block_11/block_1/separable_conv_block_normal_left1_11/separable_conv_1_bn_normal_left1_11/moving_mean", "shape": [176], "dtype": "float32"}, {"name": "normal_A_block_11/block_1/separable_conv_block_normal_left1_11/separable_conv_1_bn_normal_left1_11/moving_variance", "shape": [176], "dtype": "float32"}, {"name": "normal_A_block_12/block_1/separable_conv_block_normal_left1_12/separable_conv_1_bn_normal_left1_12/gamma", "shape": [176], "dtype": "float32"}, {"name": "normal_A_block_12/block_1/separable_conv_block_normal_left1_12/separable_conv_1_bn_normal_left1_12/beta", "shape": [176], "dtype": "float32"}, {"name": "normal_A_block_12/block_1/separable_conv_block_normal_left1_12/separable_conv_1_bn_normal_left1_12/moving_mean", "shape": [176], "dtype": "float32"}, {"name": "normal_A_block_12/block_1/separable_conv_block_normal_left1_12/separable_conv_1_bn_normal_left1_12/moving_variance", "shape": [176], "dtype": "float32"}, {"name": "normal_A_block_2/block_1/separable_conv_block_normal_left1_2/separable_conv_1_bn_normal_left1_2/gamma", "shape": [44], "dtype": "float32"}, {"name": "normal_A_block_2/block_1/separable_conv_block_normal_left1_2/separable_conv_1_bn_normal_left1_2/beta", "shape": [44], "dtype": "float32"}, {"name": "normal_A_block_2/block_1/separable_conv_block_normal_left1_2/separable_conv_1_bn_normal_left1_2/moving_mean", "shape": [44], "dtype": "float32"}, {"name": "normal_A_block_2/block_1/separable_conv_block_normal_left1_2/separable_conv_1_bn_normal_left1_2/moving_variance", "shape": [44], "dtype": "float32"}, {"name": "normal_A_block_3/block_1/separable_conv_block_normal_left1_3/separable_conv_1_bn_normal_left1_3/gamma", "shape": [44], "dtype": "float32"}, {"name": "normal_A_block_3/block_1/separable_conv_block_normal_left1_3/separable_conv_1_bn_normal_left1_3/beta", "shape": [44], "dtype": "float32"}, {"name": "normal_A_block_3/block_1/separable_conv_block_normal_left1_3/separable_conv_1_bn_normal_left1_3/moving_mean", "shape": [44], "dtype": "float32"}, {"name": "normal_A_block_3/block_1/separable_conv_block_normal_left1_3/separable_conv_1_bn_normal_left1_3/moving_variance", "shape": [44], "dtype": "float32"}, {"name": "normal_A_block_5/block_1/separable_conv_block_normal_left1_5/separable_conv_1_bn_normal_left1_5/gamma", "shape": [88], "dtype": "float32"}, {"name": "normal_A_block_5/block_1/separable_conv_block_normal_left1_5/separable_conv_1_bn_normal_left1_5/beta", "shape": [88], "dtype": "float32"}, {"name": "normal_A_block_5/block_1/separable_conv_block_normal_left1_5/separable_conv_1_bn_normal_left1_5/moving_mean", "shape": [88], "dtype": "float32"}, {"name": "normal_A_block_5/block_1/separable_conv_block_normal_left1_5/separable_conv_1_bn_normal_left1_5/moving_variance", "shape": [88], "dtype": "float32"}, {"name": "normal_A_block_6/block_1/separable_conv_block_normal_left1_6/separable_conv_1_bn_normal_left1_6/gamma", "shape": [88], "dtype": "float32"}, {"name": "normal_A_block_6/block_1/separable_conv_block_normal_left1_6/separable_conv_1_bn_normal_left1_6/beta", "shape": [88], "dtype": "float32"}, {"name": "normal_A_block_6/block_1/separable_conv_block_normal_left1_6/separable_conv_1_bn_normal_left1_6/moving_mean", "shape": [88], "dtype": "float32"}, {"name": "normal_A_block_6/block_1/separable_conv_block_normal_left1_6/separable_conv_1_bn_normal_left1_6/moving_variance", "shape": [88], "dtype": "float32"}, {"name": "normal_A_block_7/block_1/separable_conv_block_normal_left1_7/separable_conv_1_bn_normal_left1_7/gamma", "shape": [88], "dtype": "float32"}, {"name": "normal_A_block_7/block_1/separable_conv_block_normal_left1_7/separable_conv_1_bn_normal_left1_7/beta", "shape": [88], "dtype": "float32"}, {"name": "normal_A_block_7/block_1/separable_conv_block_normal_left1_7/separable_conv_1_bn_normal_left1_7/moving_mean", "shape": [88], "dtype": "float32"}, {"name": "normal_A_block_7/block_1/separable_conv_block_normal_left1_7/separable_conv_1_bn_normal_left1_7/moving_variance", "shape": [88], "dtype": "float32"}, {"name": "normal_A_block_8/block_1/separable_conv_block_normal_left1_8/separable_conv_1_bn_normal_left1_8/gamma", "shape": [88], "dtype": "float32"}, {"name": "normal_A_block_8/block_1/separable_conv_block_normal_left1_8/separable_conv_1_bn_normal_left1_8/beta", "shape": [88], "dtype": "float32"}, {"name": "normal_A_block_8/block_1/separable_conv_block_normal_left1_8/separable_conv_1_bn_normal_left1_8/moving_mean", "shape": [88], "dtype": "float32"}, {"name": "normal_A_block_8/block_1/separable_conv_block_normal_left1_8/separable_conv_1_bn_normal_left1_8/moving_variance", "shape": [88], "dtype": "float32"}, {"name": "normal_A_block_9/block_1/separable_conv_block_normal_left1_9/separable_conv_1_bn_normal_left1_9/gamma", "shape": [176], "dtype": "float32"}, {"name": "normal_A_block_9/block_1/separable_conv_block_normal_left1_9/separable_conv_1_bn_normal_left1_9/beta", "shape": [176], "dtype": "float32"}, {"name": "normal_A_block_9/block_1/separable_conv_block_normal_left1_9/separable_conv_1_bn_normal_left1_9/moving_mean", "shape": [176], "dtype": "float32"}, {"name": "normal_A_block_9/block_1/separable_conv_block_normal_left1_9/separable_conv_1_bn_normal_left1_9/moving_variance", "shape": [176], "dtype": "float32"}, {"name": "normal_A_block_0/block_2/separable_conv_block_normal_left2_0/separable_conv_1_bn_normal_left2_0/gamma", "shape": [44], "dtype": "float32"}, {"name": "normal_A_block_0/block_2/separable_conv_block_normal_left2_0/separable_conv_1_bn_normal_left2_0/beta", "shape": [44], "dtype": "float32"}, {"name": "normal_A_block_0/block_2/separable_conv_block_normal_left2_0/separable_conv_1_bn_normal_left2_0/moving_mean", "shape": [44], "dtype": "float32"}, {"name": "normal_A_block_0/block_2/separable_conv_block_normal_left2_0/separable_conv_1_bn_normal_left2_0/moving_variance", "shape": [44], "dtype": "float32"}, {"name": "normal_A_block_1/block_2/separable_conv_block_normal_left2_1/separable_conv_1_bn_normal_left2_1/gamma", "shape": [44], "dtype": "float32"}, {"name": "normal_A_block_1/block_2/separable_conv_block_normal_left2_1/separable_conv_1_bn_normal_left2_1/beta", "shape": [44], "dtype": "float32"}, {"name": "normal_A_block_1/block_2/separable_conv_block_normal_left2_1/separable_conv_1_bn_normal_left2_1/moving_mean", "shape": [44], "dtype": "float32"}, {"name": "normal_A_block_1/block_2/separable_conv_block_normal_left2_1/separable_conv_1_bn_normal_left2_1/moving_variance", "shape": [44], "dtype": "float32"}, {"name": "normal_A_block_10/block_2/separable_conv_block_normal_left2_10/separable_conv_1_bn_normal_left2_10/gamma", "shape": [176], "dtype": "float32"}, {"name": "normal_A_block_10/block_2/separable_conv_block_normal_left2_10/separable_conv_1_bn_normal_left2_10/beta", "shape": [176], "dtype": "float32"}, {"name": "normal_A_block_10/block_2/separable_conv_block_normal_left2_10/separable_conv_1_bn_normal_left2_10/moving_mean", "shape": [176], "dtype": "float32"}, {"name": "normal_A_block_10/block_2/separable_conv_block_normal_left2_10/separable_conv_1_bn_normal_left2_10/moving_variance", "shape": [176], "dtype": "float32"}, {"name": "normal_A_block_11/block_2/separable_conv_block_normal_left2_11/separable_conv_1_bn_normal_left2_11/gamma", "shape": [176], "dtype": "float32"}, {"name": "normal_A_block_11/block_2/separable_conv_block_normal_left2_11/separable_conv_1_bn_normal_left2_11/beta", "shape": [176], "dtype": "float32"}, {"name": "normal_A_block_11/block_2/separable_conv_block_normal_left2_11/separable_conv_1_bn_normal_left2_11/moving_mean", "shape": [176], "dtype": "float32"}, {"name": "normal_A_block_11/block_2/separable_conv_block_normal_left2_11/separable_conv_1_bn_normal_left2_11/moving_variance", "shape": [176], "dtype": "float32"}, {"name": "normal_A_block_12/block_2/separable_conv_block_normal_left2_12/separable_conv_1_bn_normal_left2_12/gamma", "shape": [176], "dtype": "float32"}, {"name": "normal_A_block_12/block_2/separable_conv_block_normal_left2_12/separable_conv_1_bn_normal_left2_12/beta", "shape": [176], "dtype": "float32"}, {"name": "normal_A_block_12/block_2/separable_conv_block_normal_left2_12/separable_conv_1_bn_normal_left2_12/moving_mean", "shape": [176], "dtype": "float32"}, {"name": "normal_A_block_12/block_2/separable_conv_block_normal_left2_12/separable_conv_1_bn_normal_left2_12/moving_variance", "shape": [176], "dtype": "float32"}, {"name": "normal_A_block_2/block_2/separable_conv_block_normal_left2_2/separable_conv_1_bn_normal_left2_2/gamma", "shape": [44], "dtype": "float32"}, {"name": "normal_A_block_2/block_2/separable_conv_block_normal_left2_2/separable_conv_1_bn_normal_left2_2/beta", "shape": [44], "dtype": "float32"}, {"name": "normal_A_block_2/block_2/separable_conv_block_normal_left2_2/separable_conv_1_bn_normal_left2_2/moving_mean", "shape": [44], "dtype": "float32"}, {"name": "normal_A_block_2/block_2/separable_conv_block_normal_left2_2/separable_conv_1_bn_normal_left2_2/moving_variance", "shape": [44], "dtype": "float32"}, {"name": "normal_A_block_3/block_2/separable_conv_block_normal_left2_3/separable_conv_1_bn_normal_left2_3/gamma", "shape": [44], "dtype": "float32"}, {"name": "normal_A_block_3/block_2/separable_conv_block_normal_left2_3/separable_conv_1_bn_normal_left2_3/beta", "shape": [44], "dtype": "float32"}, {"name": "normal_A_block_3/block_2/separable_conv_block_normal_left2_3/separable_conv_1_bn_normal_left2_3/moving_mean", "shape": [44], "dtype": "float32"}, {"name": "normal_A_block_3/block_2/separable_conv_block_normal_left2_3/separable_conv_1_bn_normal_left2_3/moving_variance", "shape": [44], "dtype": "float32"}, {"name": "normal_A_block_5/block_2/separable_conv_block_normal_left2_5/separable_conv_1_bn_normal_left2_5/gamma", "shape": [88], "dtype": "float32"}, {"name": "normal_A_block_5/block_2/separable_conv_block_normal_left2_5/separable_conv_1_bn_normal_left2_5/beta", "shape": [88], "dtype": "float32"}, {"name": "normal_A_block_5/block_2/separable_conv_block_normal_left2_5/separable_conv_1_bn_normal_left2_5/moving_mean", "shape": [88], "dtype": "float32"}, {"name": "normal_A_block_5/block_2/separable_conv_block_normal_left2_5/separable_conv_1_bn_normal_left2_5/moving_variance", "shape": [88], "dtype": "float32"}, {"name": "normal_A_block_6/block_2/separable_conv_block_normal_left2_6/separable_conv_1_bn_normal_left2_6/gamma", "shape": [88], "dtype": "float32"}, {"name": "normal_A_block_6/block_2/separable_conv_block_normal_left2_6/separable_conv_1_bn_normal_left2_6/beta", "shape": [88], "dtype": "float32"}, {"name": "normal_A_block_6/block_2/separable_conv_block_normal_left2_6/separable_conv_1_bn_normal_left2_6/moving_mean", "shape": [88], "dtype": "float32"}, {"name": "normal_A_block_6/block_2/separable_conv_block_normal_left2_6/separable_conv_1_bn_normal_left2_6/moving_variance", "shape": [88], "dtype": "float32"}, {"name": "normal_A_block_7/block_2/separable_conv_block_normal_left2_7/separable_conv_1_bn_normal_left2_7/gamma", "shape": [88], "dtype": "float32"}, {"name": "normal_A_block_7/block_2/separable_conv_block_normal_left2_7/separable_conv_1_bn_normal_left2_7/beta", "shape": [88], "dtype": "float32"}, {"name": "normal_A_block_7/block_2/separable_conv_block_normal_left2_7/separable_conv_1_bn_normal_left2_7/moving_mean", "shape": [88], "dtype": "float32"}, {"name": "normal_A_block_7/block_2/separable_conv_block_normal_left2_7/separable_conv_1_bn_normal_left2_7/moving_variance", "shape": [88], "dtype": "float32"}, {"name": "normal_A_block_8/block_2/separable_conv_block_normal_left2_8/separable_conv_1_bn_normal_left2_8/gamma", "shape": [88], "dtype": "float32"}, {"name": "normal_A_block_8/block_2/separable_conv_block_normal_left2_8/separable_conv_1_bn_normal_left2_8/beta", "shape": [88], "dtype": "float32"}, {"name": "normal_A_block_8/block_2/separable_conv_block_normal_left2_8/separable_conv_1_bn_normal_left2_8/moving_mean", "shape": [88], "dtype": "float32"}, {"name": "normal_A_block_8/block_2/separable_conv_block_normal_left2_8/separable_conv_1_bn_normal_left2_8/moving_variance", "shape": [88], "dtype": "float32"}, {"name": "normal_A_block_9/block_2/separable_conv_block_normal_left2_9/separable_conv_1_bn_normal_left2_9/gamma", "shape": [176], "dtype": "float32"}, {"name": "normal_A_block_9/block_2/separable_conv_block_normal_left2_9/separable_conv_1_bn_normal_left2_9/beta", "shape": [176], "dtype": "float32"}, {"name": "normal_A_block_9/block_2/separable_conv_block_normal_left2_9/separable_conv_1_bn_normal_left2_9/moving_mean", "shape": [176], "dtype": "float32"}, {"name": "normal_A_block_9/block_2/separable_conv_block_normal_left2_9/separable_conv_1_bn_normal_left2_9/moving_variance", "shape": [176], "dtype": "float32"}, {"name": "normal_A_block_0/block_5/separable_conv_block_normal_left5_0/separable_conv_1_bn_normal_left5_0/gamma", "shape": [44], "dtype": "float32"}, {"name": "normal_A_block_0/block_5/separable_conv_block_normal_left5_0/separable_conv_1_bn_normal_left5_0/beta", "shape": [44], "dtype": "float32"}, {"name": "normal_A_block_0/block_5/separable_conv_block_normal_left5_0/separable_conv_1_bn_normal_left5_0/moving_mean", "shape": [44], "dtype": "float32"}, {"name": "normal_A_block_0/block_5/separable_conv_block_normal_left5_0/separable_conv_1_bn_normal_left5_0/moving_variance", "shape": [44], "dtype": "float32"}, {"name": "normal_A_block_1/block_5/separable_conv_block_normal_left5_1/separable_conv_1_bn_normal_left5_1/gamma", "shape": [44], "dtype": "float32"}, {"name": "normal_A_block_1/block_5/separable_conv_block_normal_left5_1/separable_conv_1_bn_normal_left5_1/beta", "shape": [44], "dtype": "float32"}, {"name": "normal_A_block_1/block_5/separable_conv_block_normal_left5_1/separable_conv_1_bn_normal_left5_1/moving_mean", "shape": [44], "dtype": "float32"}, {"name": "normal_A_block_1/block_5/separable_conv_block_normal_left5_1/separable_conv_1_bn_normal_left5_1/moving_variance", "shape": [44], "dtype": "float32"}, {"name": "normal_A_block_10/block_5/separable_conv_block_normal_left5_10/separable_conv_1_bn_normal_left5_10/gamma", "shape": [176], "dtype": "float32"}, {"name": "normal_A_block_10/block_5/separable_conv_block_normal_left5_10/separable_conv_1_bn_normal_left5_10/beta", "shape": [176], "dtype": "float32"}, {"name": "normal_A_block_10/block_5/separable_conv_block_normal_left5_10/separable_conv_1_bn_normal_left5_10/moving_mean", "shape": [176], "dtype": "float32"}, {"name": "normal_A_block_10/block_5/separable_conv_block_normal_left5_10/separable_conv_1_bn_normal_left5_10/moving_variance", "shape": [176], "dtype": "float32"}, {"name": "normal_A_block_11/block_5/separable_conv_block_normal_left5_11/separable_conv_1_bn_normal_left5_11/gamma", "shape": [176], "dtype": "float32"}, {"name": "normal_A_block_11/block_5/separable_conv_block_normal_left5_11/separable_conv_1_bn_normal_left5_11/beta", "shape": [176], "dtype": "float32"}, {"name": "normal_A_block_11/block_5/separable_conv_block_normal_left5_11/separable_conv_1_bn_normal_left5_11/moving_mean", "shape": [176], "dtype": "float32"}, {"name": "normal_A_block_11/block_5/separable_conv_block_normal_left5_11/separable_conv_1_bn_normal_left5_11/moving_variance", "shape": [176], "dtype": "float32"}, {"name": "normal_A_block_12/block_5/separable_conv_block_normal_left5_12/separable_conv_1_bn_normal_left5_12/gamma", "shape": [176], "dtype": "float32"}, {"name": "normal_A_block_12/block_5/separable_conv_block_normal_left5_12/separable_conv_1_bn_normal_left5_12/beta", "shape": [176], "dtype": "float32"}, {"name": "normal_A_block_12/block_5/separable_conv_block_normal_left5_12/separable_conv_1_bn_normal_left5_12/moving_mean", "shape": [176], "dtype": "float32"}, {"name": "normal_A_block_12/block_5/separable_conv_block_normal_left5_12/separable_conv_1_bn_normal_left5_12/moving_variance", "shape": [176], "dtype": "float32"}, {"name": "normal_A_block_2/block_5/separable_conv_block_normal_left5_2/separable_conv_1_bn_normal_left5_2/gamma", "shape": [44], "dtype": "float32"}, {"name": "normal_A_block_2/block_5/separable_conv_block_normal_left5_2/separable_conv_1_bn_normal_left5_2/beta", "shape": [44], "dtype": "float32"}, {"name": "normal_A_block_2/block_5/separable_conv_block_normal_left5_2/separable_conv_1_bn_normal_left5_2/moving_mean", "shape": [44], "dtype": "float32"}, {"name": "normal_A_block_2/block_5/separable_conv_block_normal_left5_2/separable_conv_1_bn_normal_left5_2/moving_variance", "shape": [44], "dtype": "float32"}, {"name": "normal_A_block_3/block_5/separable_conv_block_normal_left5_3/separable_conv_1_bn_normal_left5_3/gamma", "shape": [44], "dtype": "float32"}, {"name": "normal_A_block_3/block_5/separable_conv_block_normal_left5_3/separable_conv_1_bn_normal_left5_3/beta", "shape": [44], "dtype": "float32"}, {"name": "normal_A_block_3/block_5/separable_conv_block_normal_left5_3/separable_conv_1_bn_normal_left5_3/moving_mean", "shape": [44], "dtype": "float32"}, {"name": "normal_A_block_3/block_5/separable_conv_block_normal_left5_3/separable_conv_1_bn_normal_left5_3/moving_variance", "shape": [44], "dtype": "float32"}, {"name": "normal_A_block_5/block_5/separable_conv_block_normal_left5_5/separable_conv_1_bn_normal_left5_5/gamma", "shape": [88], "dtype": "float32"}, {"name": "normal_A_block_5/block_5/separable_conv_block_normal_left5_5/separable_conv_1_bn_normal_left5_5/beta", "shape": [88], "dtype": "float32"}, {"name": "normal_A_block_5/block_5/separable_conv_block_normal_left5_5/separable_conv_1_bn_normal_left5_5/moving_mean", "shape": [88], "dtype": "float32"}, {"name": "normal_A_block_5/block_5/separable_conv_block_normal_left5_5/separable_conv_1_bn_normal_left5_5/moving_variance", "shape": [88], "dtype": "float32"}, {"name": "normal_A_block_6/block_5/separable_conv_block_normal_left5_6/separable_conv_1_bn_normal_left5_6/gamma", "shape": [88], "dtype": "float32"}, {"name": "normal_A_block_6/block_5/separable_conv_block_normal_left5_6/separable_conv_1_bn_normal_left5_6/beta", "shape": [88], "dtype": "float32"}, {"name": "normal_A_block_6/block_5/separable_conv_block_normal_left5_6/separable_conv_1_bn_normal_left5_6/moving_mean", "shape": [88], "dtype": "float32"}, {"name": "normal_A_block_6/block_5/separable_conv_block_normal_left5_6/separable_conv_1_bn_normal_left5_6/moving_variance", "shape": [88], "dtype": "float32"}, {"name": "normal_A_block_7/block_5/separable_conv_block_normal_left5_7/separable_conv_1_bn_normal_left5_7/gamma", "shape": [88], "dtype": "float32"}, {"name": "normal_A_block_7/block_5/separable_conv_block_normal_left5_7/separable_conv_1_bn_normal_left5_7/beta", "shape": [88], "dtype": "float32"}, {"name": "normal_A_block_7/block_5/separable_conv_block_normal_left5_7/separable_conv_1_bn_normal_left5_7/moving_mean", "shape": [88], "dtype": "float32"}, {"name": "normal_A_block_7/block_5/separable_conv_block_normal_left5_7/separable_conv_1_bn_normal_left5_7/moving_variance", "shape": [88], "dtype": "float32"}, {"name": "normal_A_block_8/block_5/separable_conv_block_normal_left5_8/separable_conv_1_bn_normal_left5_8/gamma", "shape": [88], "dtype": "float32"}, {"name": "normal_A_block_8/block_5/separable_conv_block_normal_left5_8/separable_conv_1_bn_normal_left5_8/beta", "shape": [88], "dtype": "float32"}, {"name": "normal_A_block_8/block_5/separable_conv_block_normal_left5_8/separable_conv_1_bn_normal_left5_8/moving_mean", "shape": [88], "dtype": "float32"}, {"name": "normal_A_block_8/block_5/separable_conv_block_normal_left5_8/separable_conv_1_bn_normal_left5_8/moving_variance", "shape": [88], "dtype": "float32"}, {"name": "normal_A_block_9/block_5/separable_conv_block_normal_left5_9/separable_conv_1_bn_normal_left5_9/gamma", "shape": [176], "dtype": "float32"}, {"name": "normal_A_block_9/block_5/separable_conv_block_normal_left5_9/separable_conv_1_bn_normal_left5_9/beta", "shape": [176], "dtype": "float32"}, {"name": "normal_A_block_9/block_5/separable_conv_block_normal_left5_9/separable_conv_1_bn_normal_left5_9/moving_mean", "shape": [176], "dtype": "float32"}, {"name": "normal_A_block_9/block_5/separable_conv_block_normal_left5_9/separable_conv_1_bn_normal_left5_9/moving_variance", "shape": [176], "dtype": "float32"}, {"name": "normal_A_block_0/block_1/separable_conv_block_normal_right1_0/separable_conv_1_bn_normal_right1_0/gamma", "shape": [44], "dtype": "float32"}, {"name": "normal_A_block_0/block_1/separable_conv_block_normal_right1_0/separable_conv_1_bn_normal_right1_0/beta", "shape": [44], "dtype": "float32"}, {"name": "normal_A_block_0/block_1/separable_conv_block_normal_right1_0/separable_conv_1_bn_normal_right1_0/moving_mean", "shape": [44], "dtype": "float32"}, {"name": "normal_A_block_0/block_1/separable_conv_block_normal_right1_0/separable_conv_1_bn_normal_right1_0/moving_variance", "shape": [44], "dtype": "float32"}, {"name": "normal_A_block_1/block_1/separable_conv_block_normal_right1_1/separable_conv_1_bn_normal_right1_1/gamma", "shape": [44], "dtype": "float32"}, {"name": "normal_A_block_1/block_1/separable_conv_block_normal_right1_1/separable_conv_1_bn_normal_right1_1/beta", "shape": [44], "dtype": "float32"}, {"name": "normal_A_block_1/block_1/separable_conv_block_normal_right1_1/separable_conv_1_bn_normal_right1_1/moving_mean", "shape": [44], "dtype": "float32"}, {"name": "normal_A_block_1/block_1/separable_conv_block_normal_right1_1/separable_conv_1_bn_normal_right1_1/moving_variance", "shape": [44], "dtype": "float32"}, {"name": "normal_A_block_10/block_1/separable_conv_block_normal_right1_10/separable_conv_1_bn_normal_right1_10/gamma", "shape": [176], "dtype": "float32"}, {"name": "normal_A_block_10/block_1/separable_conv_block_normal_right1_10/separable_conv_1_bn_normal_right1_10/beta", "shape": [176], "dtype": "float32"}, {"name": "normal_A_block_10/block_1/separable_conv_block_normal_right1_10/separable_conv_1_bn_normal_right1_10/moving_mean", "shape": [176], "dtype": "float32"}, {"name": "normal_A_block_10/block_1/separable_conv_block_normal_right1_10/separable_conv_1_bn_normal_right1_10/moving_variance", "shape": [176], "dtype": "float32"}, {"name": "normal_A_block_11/block_1/separable_conv_block_normal_right1_11/separable_conv_1_bn_normal_right1_11/gamma", "shape": [176], "dtype": "float32"}, {"name": "normal_A_block_11/block_1/separable_conv_block_normal_right1_11/separable_conv_1_bn_normal_right1_11/beta", "shape": [176], "dtype": "float32"}, {"name": "normal_A_block_11/block_1/separable_conv_block_normal_right1_11/separable_conv_1_bn_normal_right1_11/moving_mean", "shape": [176], "dtype": "float32"}, {"name": "normal_A_block_11/block_1/separable_conv_block_normal_right1_11/separable_conv_1_bn_normal_right1_11/moving_variance", "shape": [176], "dtype": "float32"}, {"name": "normal_A_block_12/block_1/separable_conv_block_normal_right1_12/separable_conv_1_bn_normal_right1_12/gamma", "shape": [176], "dtype": "float32"}, {"name": "normal_A_block_12/block_1/separable_conv_block_normal_right1_12/separable_conv_1_bn_normal_right1_12/beta", "shape": [176], "dtype": "float32"}, {"name": "normal_A_block_12/block_1/separable_conv_block_normal_right1_12/separable_conv_1_bn_normal_right1_12/moving_mean", "shape": [176], "dtype": "float32"}, {"name": "normal_A_block_12/block_1/separable_conv_block_normal_right1_12/separable_conv_1_bn_normal_right1_12/moving_variance", "shape": [176], "dtype": "float32"}, {"name": "normal_A_block_2/block_1/separable_conv_block_normal_right1_2/separable_conv_1_bn_normal_right1_2/gamma", "shape": [44], "dtype": "float32"}, {"name": "normal_A_block_2/block_1/separable_conv_block_normal_right1_2/separable_conv_1_bn_normal_right1_2/beta", "shape": [44], "dtype": "float32"}, {"name": "normal_A_block_2/block_1/separable_conv_block_normal_right1_2/separable_conv_1_bn_normal_right1_2/moving_mean", "shape": [44], "dtype": "float32"}, {"name": "normal_A_block_2/block_1/separable_conv_block_normal_right1_2/separable_conv_1_bn_normal_right1_2/moving_variance", "shape": [44], "dtype": "float32"}, {"name": "normal_A_block_3/block_1/separable_conv_block_normal_right1_3/separable_conv_1_bn_normal_right1_3/gamma", "shape": [44], "dtype": "float32"}, {"name": "normal_A_block_3/block_1/separable_conv_block_normal_right1_3/separable_conv_1_bn_normal_right1_3/beta", "shape": [44], "dtype": "float32"}, {"name": "normal_A_block_3/block_1/separable_conv_block_normal_right1_3/separable_conv_1_bn_normal_right1_3/moving_mean", "shape": [44], "dtype": "float32"}, {"name": "normal_A_block_3/block_1/separable_conv_block_normal_right1_3/separable_conv_1_bn_normal_right1_3/moving_variance", "shape": [44], "dtype": "float32"}, {"name": "normal_A_block_5/block_1/separable_conv_block_normal_right1_5/separable_conv_1_bn_normal_right1_5/gamma", "shape": [88], "dtype": "float32"}, {"name": "normal_A_block_5/block_1/separable_conv_block_normal_right1_5/separable_conv_1_bn_normal_right1_5/beta", "shape": [88], "dtype": "float32"}, {"name": "normal_A_block_5/block_1/separable_conv_block_normal_right1_5/separable_conv_1_bn_normal_right1_5/moving_mean", "shape": [88], "dtype": "float32"}, {"name": "normal_A_block_5/block_1/separable_conv_block_normal_right1_5/separable_conv_1_bn_normal_right1_5/moving_variance", "shape": [88], "dtype": "float32"}, {"name": "normal_A_block_6/block_1/separable_conv_block_normal_right1_6/separable_conv_1_bn_normal_right1_6/gamma", "shape": [88], "dtype": "float32"}, {"name": "normal_A_block_6/block_1/separable_conv_block_normal_right1_6/separable_conv_1_bn_normal_right1_6/beta", "shape": [88], "dtype": "float32"}, {"name": "normal_A_block_6/block_1/separable_conv_block_normal_right1_6/separable_conv_1_bn_normal_right1_6/moving_mean", "shape": [88], "dtype": "float32"}, {"name": "normal_A_block_6/block_1/separable_conv_block_normal_right1_6/separable_conv_1_bn_normal_right1_6/moving_variance", "shape": [88], "dtype": "float32"}, {"name": "normal_A_block_7/block_1/separable_conv_block_normal_right1_7/separable_conv_1_bn_normal_right1_7/gamma", "shape": [88], "dtype": "float32"}, {"name": "normal_A_block_7/block_1/separable_conv_block_normal_right1_7/separable_conv_1_bn_normal_right1_7/beta", "shape": [88], "dtype": "float32"}, {"name": "normal_A_block_7/block_1/separable_conv_block_normal_right1_7/separable_conv_1_bn_normal_right1_7/moving_mean", "shape": [88], "dtype": "float32"}, {"name": "normal_A_block_7/block_1/separable_conv_block_normal_right1_7/separable_conv_1_bn_normal_right1_7/moving_variance", "shape": [88], "dtype": "float32"}, {"name": "normal_A_block_8/block_1/separable_conv_block_normal_right1_8/separable_conv_1_bn_normal_right1_8/gamma", "shape": [88], "dtype": "float32"}, {"name": "normal_A_block_8/block_1/separable_conv_block_normal_right1_8/separable_conv_1_bn_normal_right1_8/beta", "shape": [88], "dtype": "float32"}, {"name": "normal_A_block_8/block_1/separable_conv_block_normal_right1_8/separable_conv_1_bn_normal_right1_8/moving_mean", "shape": [88], "dtype": "float32"}, {"name": "normal_A_block_8/block_1/separable_conv_block_normal_right1_8/separable_conv_1_bn_normal_right1_8/moving_variance", "shape": [88], "dtype": "float32"}, {"name": "normal_A_block_9/block_1/separable_conv_block_normal_right1_9/separable_conv_1_bn_normal_right1_9/gamma", "shape": [176], "dtype": "float32"}, {"name": "normal_A_block_9/block_1/separable_conv_block_normal_right1_9/separable_conv_1_bn_normal_right1_9/beta", "shape": [176], "dtype": "float32"}, {"name": "normal_A_block_9/block_1/separable_conv_block_normal_right1_9/separable_conv_1_bn_normal_right1_9/moving_mean", "shape": [176], "dtype": "float32"}, {"name": "normal_A_block_9/block_1/separable_conv_block_normal_right1_9/separable_conv_1_bn_normal_right1_9/moving_variance", "shape": [176], "dtype": "float32"}, {"name": "normal_A_block_0/block_2/separable_conv_block_normal_right2_0/separable_conv_1_bn_normal_right2_0/gamma", "shape": [44], "dtype": "float32"}, {"name": "normal_A_block_0/block_2/separable_conv_block_normal_right2_0/separable_conv_1_bn_normal_right2_0/beta", "shape": [44], "dtype": "float32"}, {"name": "normal_A_block_0/block_2/separable_conv_block_normal_right2_0/separable_conv_1_bn_normal_right2_0/moving_mean", "shape": [44], "dtype": "float32"}, {"name": "normal_A_block_0/block_2/separable_conv_block_normal_right2_0/separable_conv_1_bn_normal_right2_0/moving_variance", "shape": [44], "dtype": "float32"}, {"name": "normal_A_block_1/block_2/separable_conv_block_normal_right2_1/separable_conv_1_bn_normal_right2_1/gamma", "shape": [44], "dtype": "float32"}, {"name": "normal_A_block_1/block_2/separable_conv_block_normal_right2_1/separable_conv_1_bn_normal_right2_1/beta", "shape": [44], "dtype": "float32"}, {"name": "normal_A_block_1/block_2/separable_conv_block_normal_right2_1/separable_conv_1_bn_normal_right2_1/moving_mean", "shape": [44], "dtype": "float32"}, {"name": "normal_A_block_1/block_2/separable_conv_block_normal_right2_1/separable_conv_1_bn_normal_right2_1/moving_variance", "shape": [44], "dtype": "float32"}, {"name": "normal_A_block_10/block_2/separable_conv_block_normal_right2_10/separable_conv_1_bn_normal_right2_10/gamma", "shape": [176], "dtype": "float32"}, {"name": "normal_A_block_10/block_2/separable_conv_block_normal_right2_10/separable_conv_1_bn_normal_right2_10/beta", "shape": [176], "dtype": "float32"}, {"name": "normal_A_block_10/block_2/separable_conv_block_normal_right2_10/separable_conv_1_bn_normal_right2_10/moving_mean", "shape": [176], "dtype": "float32"}, {"name": "normal_A_block_10/block_2/separable_conv_block_normal_right2_10/separable_conv_1_bn_normal_right2_10/moving_variance", "shape": [176], "dtype": "float32"}, {"name": "normal_A_block_11/block_2/separable_conv_block_normal_right2_11/separable_conv_1_bn_normal_right2_11/gamma", "shape": [176], "dtype": "float32"}, {"name": "normal_A_block_11/block_2/separable_conv_block_normal_right2_11/separable_conv_1_bn_normal_right2_11/beta", "shape": [176], "dtype": "float32"}, {"name": "normal_A_block_11/block_2/separable_conv_block_normal_right2_11/separable_conv_1_bn_normal_right2_11/moving_mean", "shape": [176], "dtype": "float32"}, {"name": "normal_A_block_11/block_2/separable_conv_block_normal_right2_11/separable_conv_1_bn_normal_right2_11/moving_variance", "shape": [176], "dtype": "float32"}, {"name": "normal_A_block_12/block_2/separable_conv_block_normal_right2_12/separable_conv_1_bn_normal_right2_12/gamma", "shape": [176], "dtype": "float32"}, {"name": "normal_A_block_12/block_2/separable_conv_block_normal_right2_12/separable_conv_1_bn_normal_right2_12/beta", "shape": [176], "dtype": "float32"}, {"name": "normal_A_block_12/block_2/separable_conv_block_normal_right2_12/separable_conv_1_bn_normal_right2_12/moving_mean", "shape": [176], "dtype": "float32"}, {"name": "normal_A_block_12/block_2/separable_conv_block_normal_right2_12/separable_conv_1_bn_normal_right2_12/moving_variance", "shape": [176], "dtype": "float32"}, {"name": "normal_A_block_2/block_2/separable_conv_block_normal_right2_2/separable_conv_1_bn_normal_right2_2/gamma", "shape": [44], "dtype": "float32"}, {"name": "normal_A_block_2/block_2/separable_conv_block_normal_right2_2/separable_conv_1_bn_normal_right2_2/beta", "shape": [44], "dtype": "float32"}, {"name": "normal_A_block_2/block_2/separable_conv_block_normal_right2_2/separable_conv_1_bn_normal_right2_2/moving_mean", "shape": [44], "dtype": "float32"}, {"name": "normal_A_block_2/block_2/separable_conv_block_normal_right2_2/separable_conv_1_bn_normal_right2_2/moving_variance", "shape": [44], "dtype": "float32"}, {"name": "normal_A_block_3/block_2/separable_conv_block_normal_right2_3/separable_conv_1_bn_normal_right2_3/gamma", "shape": [44], "dtype": "float32"}, {"name": "normal_A_block_3/block_2/separable_conv_block_normal_right2_3/separable_conv_1_bn_normal_right2_3/beta", "shape": [44], "dtype": "float32"}, {"name": "normal_A_block_3/block_2/separable_conv_block_normal_right2_3/separable_conv_1_bn_normal_right2_3/moving_mean", "shape": [44], "dtype": "float32"}, {"name": "normal_A_block_3/block_2/separable_conv_block_normal_right2_3/separable_conv_1_bn_normal_right2_3/moving_variance", "shape": [44], "dtype": "float32"}, {"name": "normal_A_block_5/block_2/separable_conv_block_normal_right2_5/separable_conv_1_bn_normal_right2_5/gamma", "shape": [88], "dtype": "float32"}, {"name": "normal_A_block_5/block_2/separable_conv_block_normal_right2_5/separable_conv_1_bn_normal_right2_5/beta", "shape": [88], "dtype": "float32"}, {"name": "normal_A_block_5/block_2/separable_conv_block_normal_right2_5/separable_conv_1_bn_normal_right2_5/moving_mean", "shape": [88], "dtype": "float32"}, {"name": "normal_A_block_5/block_2/separable_conv_block_normal_right2_5/separable_conv_1_bn_normal_right2_5/moving_variance", "shape": [88], "dtype": "float32"}, {"name": "normal_A_block_6/block_2/separable_conv_block_normal_right2_6/separable_conv_1_bn_normal_right2_6/gamma", "shape": [88], "dtype": "float32"}, {"name": "normal_A_block_6/block_2/separable_conv_block_normal_right2_6/separable_conv_1_bn_normal_right2_6/beta", "shape": [88], "dtype": "float32"}, {"name": "normal_A_block_6/block_2/separable_conv_block_normal_right2_6/separable_conv_1_bn_normal_right2_6/moving_mean", "shape": [88], "dtype": "float32"}, {"name": "normal_A_block_6/block_2/separable_conv_block_normal_right2_6/separable_conv_1_bn_normal_right2_6/moving_variance", "shape": [88], "dtype": "float32"}, {"name": "normal_A_block_7/block_2/separable_conv_block_normal_right2_7/separable_conv_1_bn_normal_right2_7/gamma", "shape": [88], "dtype": "float32"}, {"name": "normal_A_block_7/block_2/separable_conv_block_normal_right2_7/separable_conv_1_bn_normal_right2_7/beta", "shape": [88], "dtype": "float32"}, {"name": "normal_A_block_7/block_2/separable_conv_block_normal_right2_7/separable_conv_1_bn_normal_right2_7/moving_mean", "shape": [88], "dtype": "float32"}, {"name": "normal_A_block_7/block_2/separable_conv_block_normal_right2_7/separable_conv_1_bn_normal_right2_7/moving_variance", "shape": [88], "dtype": "float32"}, {"name": "normal_A_block_8/block_2/separable_conv_block_normal_right2_8/separable_conv_1_bn_normal_right2_8/gamma", "shape": [88], "dtype": "float32"}, {"name": "normal_A_block_8/block_2/separable_conv_block_normal_right2_8/separable_conv_1_bn_normal_right2_8/beta", "shape": [88], "dtype": "float32"}, {"name": "normal_A_block_8/block_2/separable_conv_block_normal_right2_8/separable_conv_1_bn_normal_right2_8/moving_mean", "shape": [88], "dtype": "float32"}, {"name": "normal_A_block_8/block_2/separable_conv_block_normal_right2_8/separable_conv_1_bn_normal_right2_8/moving_variance", "shape": [88], "dtype": "float32"}, {"name": "normal_A_block_9/block_2/separable_conv_block_normal_right2_9/separable_conv_1_bn_normal_right2_9/gamma", "shape": [176], "dtype": "float32"}, {"name": "normal_A_block_9/block_2/separable_conv_block_normal_right2_9/separable_conv_1_bn_normal_right2_9/beta", "shape": [176], "dtype": "float32"}, {"name": "normal_A_block_9/block_2/separable_conv_block_normal_right2_9/separable_conv_1_bn_normal_right2_9/moving_mean", "shape": [176], "dtype": "float32"}, {"name": "normal_A_block_9/block_2/separable_conv_block_normal_right2_9/separable_conv_1_bn_normal_right2_9/moving_variance", "shape": [176], "dtype": "float32"}, {"name": "reduction_A_block_reduce_4/block_1/separable_conv_block_reduction_left1_reduce_4/separable_conv_1_bn_reduction_left1_reduce_4/gamma", "shape": [88], "dtype": "float32"}, {"name": "reduction_A_block_reduce_4/block_1/separable_conv_block_reduction_left1_reduce_4/separable_conv_1_bn_reduction_left1_reduce_4/beta", "shape": [88], "dtype": "float32"}, {"name": "reduction_A_block_reduce_4/block_1/separable_conv_block_reduction_left1_reduce_4/separable_conv_1_bn_reduction_left1_reduce_4/moving_mean", "shape": [88], "dtype": "float32"}, {"name": "reduction_A_block_reduce_4/block_1/separable_conv_block_reduction_left1_reduce_4/separable_conv_1_bn_reduction_left1_reduce_4/moving_variance", "shape": [88], "dtype": "float32"}, {"name": "reduction_A_block_reduce_8/block_1/separable_conv_block_reduction_left1_reduce_8/separable_conv_1_bn_reduction_left1_reduce_8/gamma", "shape": [176], "dtype": "float32"}, {"name": "reduction_A_block_reduce_8/block_1/separable_conv_block_reduction_left1_reduce_8/separable_conv_1_bn_reduction_left1_reduce_8/beta", "shape": [176], "dtype": "float32"}, {"name": "reduction_A_block_reduce_8/block_1/separable_conv_block_reduction_left1_reduce_8/separable_conv_1_bn_reduction_left1_reduce_8/moving_mean", "shape": [176], "dtype": "float32"}, {"name": "reduction_A_block_reduce_8/block_1/separable_conv_block_reduction_left1_reduce_8/separable_conv_1_bn_reduction_left1_reduce_8/moving_variance", "shape": [176], "dtype": "float32"}, {"name": "reduction_A_block_stem_1/block_1/separable_conv_block_reduction_left1_stem_1/separable_conv_1_bn_reduction_left1_stem_1/gamma", "shape": [11], "dtype": "float32"}, {"name": "reduction_A_block_stem_1/block_1/separable_conv_block_reduction_left1_stem_1/separable_conv_1_bn_reduction_left1_stem_1/beta", "shape": [11], "dtype": "float32"}, {"name": "reduction_A_block_stem_1/block_1/separable_conv_block_reduction_left1_stem_1/separable_conv_1_bn_reduction_left1_stem_1/moving_mean", "shape": [11], "dtype": "float32"}, {"name": "reduction_A_block_stem_1/block_1/separable_conv_block_reduction_left1_stem_1/separable_conv_1_bn_reduction_left1_stem_1/moving_variance", "shape": [11], "dtype": "float32"}, {"name": "reduction_A_block_stem_2/block_1/separable_conv_block_reduction_left1_stem_2/separable_conv_1_bn_reduction_left1_stem_2/gamma", "shape": [22], "dtype": "float32"}, {"name": "reduction_A_block_stem_2/block_1/separable_conv_block_reduction_left1_stem_2/separable_conv_1_bn_reduction_left1_stem_2/beta", "shape": [22], "dtype": "float32"}, {"name": "reduction_A_block_stem_2/block_1/separable_conv_block_reduction_left1_stem_2/separable_conv_1_bn_reduction_left1_stem_2/moving_mean", "shape": [22], "dtype": "float32"}, {"name": "reduction_A_block_stem_2/block_1/separable_conv_block_reduction_left1_stem_2/separable_conv_1_bn_reduction_left1_stem_2/moving_variance", "shape": [22], "dtype": "float32"}, {"name": "reduction_A_block_reduce_4/block_5/separable_conv_block_reduction_left4_reduce_4/separable_conv_1_bn_reduction_left4_reduce_4/gamma", "shape": [88], "dtype": "float32"}, {"name": "reduction_A_block_reduce_4/block_5/separable_conv_block_reduction_left4_reduce_4/separable_conv_1_bn_reduction_left4_reduce_4/beta", "shape": [88], "dtype": "float32"}, {"name": "reduction_A_block_reduce_4/block_5/separable_conv_block_reduction_left4_reduce_4/separable_conv_1_bn_reduction_left4_reduce_4/moving_mean", "shape": [88], "dtype": "float32"}, {"name": "reduction_A_block_reduce_4/block_5/separable_conv_block_reduction_left4_reduce_4/separable_conv_1_bn_reduction_left4_reduce_4/moving_variance", "shape": [88], "dtype": "float32"}, {"name": "reduction_A_block_reduce_8/block_5/separable_conv_block_reduction_left4_reduce_8/separable_conv_1_bn_reduction_left4_reduce_8/gamma", "shape": [176], "dtype": "float32"}, {"name": "reduction_A_block_reduce_8/block_5/separable_conv_block_reduction_left4_reduce_8/separable_conv_1_bn_reduction_left4_reduce_8/beta", "shape": [176], "dtype": "float32"}, {"name": "reduction_A_block_reduce_8/block_5/separable_conv_block_reduction_left4_reduce_8/separable_conv_1_bn_reduction_left4_reduce_8/moving_mean", "shape": [176], "dtype": "float32"}, {"name": "reduction_A_block_reduce_8/block_5/separable_conv_block_reduction_left4_reduce_8/separable_conv_1_bn_reduction_left4_reduce_8/moving_variance", "shape": [176], "dtype": "float32"}, {"name": "reduction_A_block_stem_1/block_5/separable_conv_block_reduction_left4_stem_1/separable_conv_1_bn_reduction_left4_stem_1/gamma", "shape": [11], "dtype": "float32"}, {"name": "reduction_A_block_stem_1/block_5/separable_conv_block_reduction_left4_stem_1/separable_conv_1_bn_reduction_left4_stem_1/beta", "shape": [11], "dtype": "float32"}, {"name": "reduction_A_block_stem_1/block_5/separable_conv_block_reduction_left4_stem_1/separable_conv_1_bn_reduction_left4_stem_1/moving_mean", "shape": [11], "dtype": "float32"}, {"name": "reduction_A_block_stem_1/block_5/separable_conv_block_reduction_left4_stem_1/separable_conv_1_bn_reduction_left4_stem_1/moving_variance", "shape": [11], "dtype": "float32"}, {"name": "reduction_A_block_stem_2/block_5/separable_conv_block_reduction_left4_stem_2/separable_conv_1_bn_reduction_left4_stem_2/gamma", "shape": [22], "dtype": "float32"}, {"name": "reduction_A_block_stem_2/block_5/separable_conv_block_reduction_left4_stem_2/separable_conv_1_bn_reduction_left4_stem_2/beta", "shape": [22], "dtype": "float32"}, {"name": "reduction_A_block_stem_2/block_5/separable_conv_block_reduction_left4_stem_2/separable_conv_1_bn_reduction_left4_stem_2/moving_mean", "shape": [22], "dtype": "float32"}, {"name": "reduction_A_block_stem_2/block_5/separable_conv_block_reduction_left4_stem_2/separable_conv_1_bn_reduction_left4_stem_2/moving_variance", "shape": [22], "dtype": "float32"}, {"name": "reduction_A_block_reduce_4/block_1/separable_conv_block_reduction_right1_reduce_4/separable_conv_1_bn_reduction_right1_reduce_4/gamma", "shape": [88], "dtype": "float32"}, {"name": "reduction_A_block_reduce_4/block_1/separable_conv_block_reduction_right1_reduce_4/separable_conv_1_bn_reduction_right1_reduce_4/beta", "shape": [88], "dtype": "float32"}, {"name": "reduction_A_block_reduce_4/block_1/separable_conv_block_reduction_right1_reduce_4/separable_conv_1_bn_reduction_right1_reduce_4/moving_mean", "shape": [88], "dtype": "float32"}, {"name": "reduction_A_block_reduce_4/block_1/separable_conv_block_reduction_right1_reduce_4/separable_conv_1_bn_reduction_right1_reduce_4/moving_variance", "shape": [88], "dtype": "float32"}, {"name": "reduction_A_block_reduce_8/block_1/separable_conv_block_reduction_right1_reduce_8/separable_conv_1_bn_reduction_right1_reduce_8/gamma", "shape": [176], "dtype": "float32"}, {"name": "reduction_A_block_reduce_8/block_1/separable_conv_block_reduction_right1_reduce_8/separable_conv_1_bn_reduction_right1_reduce_8/beta", "shape": [176], "dtype": "float32"}, {"name": "reduction_A_block_reduce_8/block_1/separable_conv_block_reduction_right1_reduce_8/separable_conv_1_bn_reduction_right1_reduce_8/moving_mean", "shape": [176], "dtype": "float32"}, {"name": "reduction_A_block_reduce_8/block_1/separable_conv_block_reduction_right1_reduce_8/separable_conv_1_bn_reduction_right1_reduce_8/moving_variance", "shape": [176], "dtype": "float32"}, {"name": "reduction_A_block_stem_1/block_1/separable_conv_block_reduction_right1_stem_1/separable_conv_1_bn_reduction_right1_stem_1/gamma", "shape": [11], "dtype": "float32"}, {"name": "reduction_A_block_stem_1/block_1/separable_conv_block_reduction_right1_stem_1/separable_conv_1_bn_reduction_right1_stem_1/beta", "shape": [11], "dtype": "float32"}, {"name": "reduction_A_block_stem_1/block_1/separable_conv_block_reduction_right1_stem_1/separable_conv_1_bn_reduction_right1_stem_1/moving_mean", "shape": [11], "dtype": "float32"}, {"name": "reduction_A_block_stem_1/block_1/separable_conv_block_reduction_right1_stem_1/separable_conv_1_bn_reduction_right1_stem_1/moving_variance", "shape": [11], "dtype": "float32"}, {"name": "reduction_A_block_stem_2/block_1/separable_conv_block_reduction_right1_stem_2/separable_conv_1_bn_reduction_right1_stem_2/gamma", "shape": [22], "dtype": "float32"}, {"name": "reduction_A_block_stem_2/block_1/separable_conv_block_reduction_right1_stem_2/separable_conv_1_bn_reduction_right1_stem_2/beta", "shape": [22], "dtype": "float32"}, {"name": "reduction_A_block_stem_2/block_1/separable_conv_block_reduction_right1_stem_2/separable_conv_1_bn_reduction_right1_stem_2/moving_mean", "shape": [22], "dtype": "float32"}, {"name": "reduction_A_block_stem_2/block_1/separable_conv_block_reduction_right1_stem_2/separable_conv_1_bn_reduction_right1_stem_2/moving_variance", "shape": [22], "dtype": "float32"}, {"name": "reduction_A_block_reduce_4/block_2/separable_conv_block_reduction_right2_reduce_4/separable_conv_1_bn_reduction_right2_reduce_4/gamma", "shape": [88], "dtype": "float32"}, {"name": "reduction_A_block_reduce_4/block_2/separable_conv_block_reduction_right2_reduce_4/separable_conv_1_bn_reduction_right2_reduce_4/beta", "shape": [88], "dtype": "float32"}, {"name": "reduction_A_block_reduce_4/block_2/separable_conv_block_reduction_right2_reduce_4/separable_conv_1_bn_reduction_right2_reduce_4/moving_mean", "shape": [88], "dtype": "float32"}, {"name": "reduction_A_block_reduce_4/block_2/separable_conv_block_reduction_right2_reduce_4/separable_conv_1_bn_reduction_right2_reduce_4/moving_variance", "shape": [88], "dtype": "float32"}, {"name": "reduction_A_block_reduce_8/block_2/separable_conv_block_reduction_right2_reduce_8/separable_conv_1_bn_reduction_right2_reduce_8/gamma", "shape": [176], "dtype": "float32"}, {"name": "reduction_A_block_reduce_8/block_2/separable_conv_block_reduction_right2_reduce_8/separable_conv_1_bn_reduction_right2_reduce_8/beta", "shape": [176], "dtype": "float32"}, {"name": "reduction_A_block_reduce_8/block_2/separable_conv_block_reduction_right2_reduce_8/separable_conv_1_bn_reduction_right2_reduce_8/moving_mean", "shape": [176], "dtype": "float32"}, {"name": "reduction_A_block_reduce_8/block_2/separable_conv_block_reduction_right2_reduce_8/separable_conv_1_bn_reduction_right2_reduce_8/moving_variance", "shape": [176], "dtype": "float32"}, {"name": "reduction_A_block_stem_1/block_2/separable_conv_block_reduction_right2_stem_1/separable_conv_1_bn_reduction_right2_stem_1/gamma", "shape": [11], "dtype": "float32"}, {"name": "reduction_A_block_stem_1/block_2/separable_conv_block_reduction_right2_stem_1/separable_conv_1_bn_reduction_right2_stem_1/beta", "shape": [11], "dtype": "float32"}, {"name": "reduction_A_block_stem_1/block_2/separable_conv_block_reduction_right2_stem_1/separable_conv_1_bn_reduction_right2_stem_1/moving_mean", "shape": [11], "dtype": "float32"}, {"name": "reduction_A_block_stem_1/block_2/separable_conv_block_reduction_right2_stem_1/separable_conv_1_bn_reduction_right2_stem_1/moving_variance", "shape": [11], "dtype": "float32"}, {"name": "reduction_A_block_stem_2/block_2/separable_conv_block_reduction_right2_stem_2/separable_conv_1_bn_reduction_right2_stem_2/gamma", "shape": [22], "dtype": "float32"}, {"name": "reduction_A_block_stem_2/block_2/separable_conv_block_reduction_right2_stem_2/separable_conv_1_bn_reduction_right2_stem_2/beta", "shape": [22], "dtype": "float32"}, {"name": "reduction_A_block_stem_2/block_2/separable_conv_block_reduction_right2_stem_2/separable_conv_1_bn_reduction_right2_stem_2/moving_mean", "shape": [22], "dtype": "float32"}, {"name": "reduction_A_block_stem_2/block_2/separable_conv_block_reduction_right2_stem_2/separable_conv_1_bn_reduction_right2_stem_2/moving_variance", "shape": [22], "dtype": "float32"}, {"name": "reduction_A_block_reduce_4/block_3/separable_conv_block_reduction_right3_reduce_4/separable_conv_1_bn_reduction_right3_reduce_4/gamma", "shape": [88], "dtype": "float32"}, {"name": "reduction_A_block_reduce_4/block_3/separable_conv_block_reduction_right3_reduce_4/separable_conv_1_bn_reduction_right3_reduce_4/beta", "shape": [88], "dtype": "float32"}, {"name": "reduction_A_block_reduce_4/block_3/separable_conv_block_reduction_right3_reduce_4/separable_conv_1_bn_reduction_right3_reduce_4/moving_mean", "shape": [88], "dtype": "float32"}, {"name": "reduction_A_block_reduce_4/block_3/separable_conv_block_reduction_right3_reduce_4/separable_conv_1_bn_reduction_right3_reduce_4/moving_variance", "shape": [88], "dtype": "float32"}, {"name": "reduction_A_block_reduce_8/block_3/separable_conv_block_reduction_right3_reduce_8/separable_conv_1_bn_reduction_right3_reduce_8/gamma", "shape": [176], "dtype": "float32"}, {"name": "reduction_A_block_reduce_8/block_3/separable_conv_block_reduction_right3_reduce_8/separable_conv_1_bn_reduction_right3_reduce_8/beta", "shape": [176], "dtype": "float32"}, {"name": "reduction_A_block_reduce_8/block_3/separable_conv_block_reduction_right3_reduce_8/separable_conv_1_bn_reduction_right3_reduce_8/moving_mean", "shape": [176], "dtype": "float32"}, {"name": "reduction_A_block_reduce_8/block_3/separable_conv_block_reduction_right3_reduce_8/separable_conv_1_bn_reduction_right3_reduce_8/moving_variance", "shape": [176], "dtype": "float32"}, {"name": "reduction_A_block_stem_1/block_3/separable_conv_block_reduction_right3_stem_1/separable_conv_1_bn_reduction_right3_stem_1/gamma", "shape": [11], "dtype": "float32"}, {"name": "reduction_A_block_stem_1/block_3/separable_conv_block_reduction_right3_stem_1/separable_conv_1_bn_reduction_right3_stem_1/beta", "shape": [11], "dtype": "float32"}, {"name": "reduction_A_block_stem_1/block_3/separable_conv_block_reduction_right3_stem_1/separable_conv_1_bn_reduction_right3_stem_1/moving_mean", "shape": [11], "dtype": "float32"}, {"name": "reduction_A_block_stem_1/block_3/separable_conv_block_reduction_right3_stem_1/separable_conv_1_bn_reduction_right3_stem_1/moving_variance", "shape": [11], "dtype": "float32"}, {"name": "reduction_A_block_stem_2/block_3/separable_conv_block_reduction_right3_stem_2/separable_conv_1_bn_reduction_right3_stem_2/gamma", "shape": [22], "dtype": "float32"}, {"name": "reduction_A_block_stem_2/block_3/separable_conv_block_reduction_right3_stem_2/separable_conv_1_bn_reduction_right3_stem_2/beta", "shape": [22], "dtype": "float32"}, {"name": "reduction_A_block_stem_2/block_3/separable_conv_block_reduction_right3_stem_2/separable_conv_1_bn_reduction_right3_stem_2/moving_mean", "shape": [22], "dtype": "float32"}, {"name": "reduction_A_block_stem_2/block_3/separable_conv_block_reduction_right3_stem_2/separable_conv_1_bn_reduction_right3_stem_2/moving_variance", "shape": [22], "dtype": "float32"}, {"name": "normal_A_block_0/block_1/separable_conv_block_normal_left1_0/separable_conv_1_normal_left1_0/depthwise_kernel", "shape": [5, 5, 44, 1], "dtype": "float32"}, {"name": "normal_A_block_0/block_1/separable_conv_block_normal_left1_0/separable_conv_1_normal_left1_0/pointwise_kernel", "shape": [1, 1, 44, 44], "dtype": "float32"}, {"name": "normal_A_block_1/block_1/separable_conv_block_normal_left1_1/separable_conv_1_normal_left1_1/depthwise_kernel", "shape": [5, 5, 44, 1], "dtype": "float32"}, {"name": "normal_A_block_1/block_1/separable_conv_block_normal_left1_1/separable_conv_1_normal_left1_1/pointwise_kernel", "shape": [1, 1, 44, 44], "dtype": "float32"}, {"name": "normal_A_block_10/block_1/separable_conv_block_normal_left1_10/separable_conv_1_normal_left1_10/depthwise_kernel", "shape": [5, 5, 176, 1], "dtype": "float32"}, {"name": "normal_A_block_10/block_1/separable_conv_block_normal_left1_10/separable_conv_1_normal_left1_10/pointwise_kernel", "shape": [1, 1, 176, 176], "dtype": "float32"}, {"name": "normal_A_block_11/block_1/separable_conv_block_normal_left1_11/separable_conv_1_normal_left1_11/depthwise_kernel", "shape": [5, 5, 176, 1], "dtype": "float32"}, {"name": "normal_A_block_11/block_1/separable_conv_block_normal_left1_11/separable_conv_1_normal_left1_11/pointwise_kernel", "shape": [1, 1, 176, 176], "dtype": "float32"}, {"name": "normal_A_block_12/block_1/separable_conv_block_normal_left1_12/separable_conv_1_normal_left1_12/depthwise_kernel", "shape": [5, 5, 176, 1], "dtype": "float32"}, {"name": "normal_A_block_12/block_1/separable_conv_block_normal_left1_12/separable_conv_1_normal_left1_12/pointwise_kernel", "shape": [1, 1, 176, 176], "dtype": "float32"}, {"name": "normal_A_block_2/block_1/separable_conv_block_normal_left1_2/separable_conv_1_normal_left1_2/depthwise_kernel", "shape": [5, 5, 44, 1], "dtype": "float32"}, {"name": "normal_A_block_2/block_1/separable_conv_block_normal_left1_2/separable_conv_1_normal_left1_2/pointwise_kernel", "shape": [1, 1, 44, 44], "dtype": "float32"}, {"name": "normal_A_block_3/block_1/separable_conv_block_normal_left1_3/separable_conv_1_normal_left1_3/depthwise_kernel", "shape": [5, 5, 44, 1], "dtype": "float32"}, {"name": "normal_A_block_3/block_1/separable_conv_block_normal_left1_3/separable_conv_1_normal_left1_3/pointwise_kernel", "shape": [1, 1, 44, 44], "dtype": "float32"}, {"name": "normal_A_block_5/block_1/separable_conv_block_normal_left1_5/separable_conv_1_normal_left1_5/depthwise_kernel", "shape": [5, 5, 88, 1], "dtype": "float32"}, {"name": "normal_A_block_5/block_1/separable_conv_block_normal_left1_5/separable_conv_1_normal_left1_5/pointwise_kernel", "shape": [1, 1, 88, 88], "dtype": "float32"}, {"name": "normal_A_block_6/block_1/separable_conv_block_normal_left1_6/separable_conv_1_normal_left1_6/depthwise_kernel", "shape": [5, 5, 88, 1], "dtype": "float32"}, {"name": "normal_A_block_6/block_1/separable_conv_block_normal_left1_6/separable_conv_1_normal_left1_6/pointwise_kernel", "shape": [1, 1, 88, 88], "dtype": "float32"}, {"name": "normal_A_block_7/block_1/separable_conv_block_normal_left1_7/separable_conv_1_normal_left1_7/depthwise_kernel", "shape": [5, 5, 88, 1], "dtype": "float32"}, {"name": "normal_A_block_7/block_1/separable_conv_block_normal_left1_7/separable_conv_1_normal_left1_7/pointwise_kernel", "shape": [1, 1, 88, 88], "dtype": "float32"}, {"name": "normal_A_block_8/block_1/separable_conv_block_normal_left1_8/separable_conv_1_normal_left1_8/depthwise_kernel", "shape": [5, 5, 88, 1], "dtype": "float32"}, {"name": "normal_A_block_8/block_1/separable_conv_block_normal_left1_8/separable_conv_1_normal_left1_8/pointwise_kernel", "shape": [1, 1, 88, 88], "dtype": "float32"}, {"name": "normal_A_block_9/block_1/separable_conv_block_normal_left1_9/separable_conv_1_normal_left1_9/depthwise_kernel", "shape": [5, 5, 176, 1], "dtype": "float32"}, {"name": "normal_A_block_9/block_1/separable_conv_block_normal_left1_9/separable_conv_1_normal_left1_9/pointwise_kernel", "shape": [1, 1, 176, 176], "dtype": "float32"}, {"name": "normal_A_block_0/block_2/separable_conv_block_normal_left2_0/separable_conv_1_normal_left2_0/depthwise_kernel", "shape": [5, 5, 44, 1], "dtype": "float32"}, {"name": "normal_A_block_0/block_2/separable_conv_block_normal_left2_0/separable_conv_1_normal_left2_0/pointwise_kernel", "shape": [1, 1, 44, 44], "dtype": "float32"}, {"name": "normal_A_block_1/block_2/separable_conv_block_normal_left2_1/separable_conv_1_normal_left2_1/depthwise_kernel", "shape": [5, 5, 44, 1], "dtype": "float32"}, {"name": "normal_A_block_1/block_2/separable_conv_block_normal_left2_1/separable_conv_1_normal_left2_1/pointwise_kernel", "shape": [1, 1, 44, 44], "dtype": "float32"}, {"name": "normal_A_block_10/block_2/separable_conv_block_normal_left2_10/separable_conv_1_normal_left2_10/depthwise_kernel", "shape": [5, 5, 176, 1], "dtype": "float32"}, {"name": "normal_A_block_10/block_2/separable_conv_block_normal_left2_10/separable_conv_1_normal_left2_10/pointwise_kernel", "shape": [1, 1, 176, 176], "dtype": "float32"}, {"name": "normal_A_block_11/block_2/separable_conv_block_normal_left2_11/separable_conv_1_normal_left2_11/depthwise_kernel", "shape": [5, 5, 176, 1], "dtype": "float32"}, {"name": "normal_A_block_11/block_2/separable_conv_block_normal_left2_11/separable_conv_1_normal_left2_11/pointwise_kernel", "shape": [1, 1, 176, 176], "dtype": "float32"}, {"name": "normal_A_block_12/block_2/separable_conv_block_normal_left2_12/separable_conv_1_normal_left2_12/depthwise_kernel", "shape": [5, 5, 176, 1], "dtype": "float32"}, {"name": "normal_A_block_12/block_2/separable_conv_block_normal_left2_12/separable_conv_1_normal_left2_12/pointwise_kernel", "shape": [1, 1, 176, 176], "dtype": "float32"}, {"name": "normal_A_block_2/block_2/separable_conv_block_normal_left2_2/separable_conv_1_normal_left2_2/depthwise_kernel", "shape": [5, 5, 44, 1], "dtype": "float32"}, {"name": "normal_A_block_2/block_2/separable_conv_block_normal_left2_2/separable_conv_1_normal_left2_2/pointwise_kernel", "shape": [1, 1, 44, 44], "dtype": "float32"}, {"name": "normal_A_block_3/block_2/separable_conv_block_normal_left2_3/separable_conv_1_normal_left2_3/depthwise_kernel", "shape": [5, 5, 44, 1], "dtype": "float32"}, {"name": "normal_A_block_3/block_2/separable_conv_block_normal_left2_3/separable_conv_1_normal_left2_3/pointwise_kernel", "shape": [1, 1, 44, 44], "dtype": "float32"}, {"name": "normal_A_block_5/block_2/separable_conv_block_normal_left2_5/separable_conv_1_normal_left2_5/depthwise_kernel", "shape": [5, 5, 88, 1], "dtype": "float32"}, {"name": "normal_A_block_5/block_2/separable_conv_block_normal_left2_5/separable_conv_1_normal_left2_5/pointwise_kernel", "shape": [1, 1, 88, 88], "dtype": "float32"}, {"name": "normal_A_block_6/block_2/separable_conv_block_normal_left2_6/separable_conv_1_normal_left2_6/depthwise_kernel", "shape": [5, 5, 88, 1], "dtype": "float32"}, {"name": "normal_A_block_6/block_2/separable_conv_block_normal_left2_6/separable_conv_1_normal_left2_6/pointwise_kernel", "shape": [1, 1, 88, 88], "dtype": "float32"}, {"name": "normal_A_block_7/block_2/separable_conv_block_normal_left2_7/separable_conv_1_normal_left2_7/depthwise_kernel", "shape": [5, 5, 88, 1], "dtype": "float32"}, {"name": "normal_A_block_7/block_2/separable_conv_block_normal_left2_7/separable_conv_1_normal_left2_7/pointwise_kernel", "shape": [1, 1, 88, 88], "dtype": "float32"}, {"name": "normal_A_block_8/block_2/separable_conv_block_normal_left2_8/separable_conv_1_normal_left2_8/depthwise_kernel", "shape": [5, 5, 88, 1], "dtype": "float32"}, {"name": "normal_A_block_8/block_2/separable_conv_block_normal_left2_8/separable_conv_1_normal_left2_8/pointwise_kernel", "shape": [1, 1, 88, 88], "dtype": "float32"}, {"name": "normal_A_block_9/block_2/separable_conv_block_normal_left2_9/separable_conv_1_normal_left2_9/depthwise_kernel", "shape": [5, 5, 176, 1], "dtype": "float32"}, {"name": "normal_A_block_9/block_2/separable_conv_block_normal_left2_9/separable_conv_1_normal_left2_9/pointwise_kernel", "shape": [1, 1, 176, 176], "dtype": "float32"}, {"name": "normal_A_block_0/block_5/separable_conv_block_normal_left5_0/separable_conv_1_normal_left5_0/depthwise_kernel", "shape": [3, 3, 44, 1], "dtype": "float32"}, {"name": "normal_A_block_0/block_5/separable_conv_block_normal_left5_0/separable_conv_1_normal_left5_0/pointwise_kernel", "shape": [1, 1, 44, 44], "dtype": "float32"}, {"name": "normal_A_block_1/block_5/separable_conv_block_normal_left5_1/separable_conv_1_normal_left5_1/depthwise_kernel", "shape": [3, 3, 44, 1], "dtype": "float32"}, {"name": "normal_A_block_1/block_5/separable_conv_block_normal_left5_1/separable_conv_1_normal_left5_1/pointwise_kernel", "shape": [1, 1, 44, 44], "dtype": "float32"}, {"name": "normal_A_block_10/block_5/separable_conv_block_normal_left5_10/separable_conv_1_normal_left5_10/depthwise_kernel", "shape": [3, 3, 176, 1], "dtype": "float32"}, {"name": "normal_A_block_10/block_5/separable_conv_block_normal_left5_10/separable_conv_1_normal_left5_10/pointwise_kernel", "shape": [1, 1, 176, 176], "dtype": "float32"}, {"name": "normal_A_block_11/block_5/separable_conv_block_normal_left5_11/separable_conv_1_normal_left5_11/depthwise_kernel", "shape": [3, 3, 176, 1], "dtype": "float32"}, {"name": "normal_A_block_11/block_5/separable_conv_block_normal_left5_11/separable_conv_1_normal_left5_11/pointwise_kernel", "shape": [1, 1, 176, 176], "dtype": "float32"}, {"name": "normal_A_block_12/block_5/separable_conv_block_normal_left5_12/separable_conv_1_normal_left5_12/depthwise_kernel", "shape": [3, 3, 176, 1], "dtype": "float32"}, {"name": "normal_A_block_12/block_5/separable_conv_block_normal_left5_12/separable_conv_1_normal_left5_12/pointwise_kernel", "shape": [1, 1, 176, 176], "dtype": "float32"}, {"name": "normal_A_block_2/block_5/separable_conv_block_normal_left5_2/separable_conv_1_normal_left5_2/depthwise_kernel", "shape": [3, 3, 44, 1], "dtype": "float32"}, {"name": "normal_A_block_2/block_5/separable_conv_block_normal_left5_2/separable_conv_1_normal_left5_2/pointwise_kernel", "shape": [1, 1, 44, 44], "dtype": "float32"}, {"name": "normal_A_block_3/block_5/separable_conv_block_normal_left5_3/separable_conv_1_normal_left5_3/depthwise_kernel", "shape": [3, 3, 44, 1], "dtype": "float32"}, {"name": "normal_A_block_3/block_5/separable_conv_block_normal_left5_3/separable_conv_1_normal_left5_3/pointwise_kernel", "shape": [1, 1, 44, 44], "dtype": "float32"}, {"name": "normal_A_block_5/block_5/separable_conv_block_normal_left5_5/separable_conv_1_normal_left5_5/depthwise_kernel", "shape": [3, 3, 88, 1], "dtype": "float32"}, {"name": "normal_A_block_5/block_5/separable_conv_block_normal_left5_5/separable_conv_1_normal_left5_5/pointwise_kernel", "shape": [1, 1, 88, 88], "dtype": "float32"}, {"name": "normal_A_block_6/block_5/separable_conv_block_normal_left5_6/separable_conv_1_normal_left5_6/depthwise_kernel", "shape": [3, 3, 88, 1], "dtype": "float32"}, {"name": "normal_A_block_6/block_5/separable_conv_block_normal_left5_6/separable_conv_1_normal_left5_6/pointwise_kernel", "shape": [1, 1, 88, 88], "dtype": "float32"}, {"name": "normal_A_block_7/block_5/separable_conv_block_normal_left5_7/separable_conv_1_normal_left5_7/depthwise_kernel", "shape": [3, 3, 88, 1], "dtype": "float32"}, {"name": "normal_A_block_7/block_5/separable_conv_block_normal_left5_7/separable_conv_1_normal_left5_7/pointwise_kernel", "shape": [1, 1, 88, 88], "dtype": "float32"}, {"name": "normal_A_block_8/block_5/separable_conv_block_normal_left5_8/separable_conv_1_normal_left5_8/depthwise_kernel", "shape": [3, 3, 88, 1], "dtype": "float32"}, {"name": "normal_A_block_8/block_5/separable_conv_block_normal_left5_8/separable_conv_1_normal_left5_8/pointwise_kernel", "shape": [1, 1, 88, 88], "dtype": "float32"}, {"name": "normal_A_block_9/block_5/separable_conv_block_normal_left5_9/separable_conv_1_normal_left5_9/depthwise_kernel", "shape": [3, 3, 176, 1], "dtype": "float32"}, {"name": "normal_A_block_9/block_5/separable_conv_block_normal_left5_9/separable_conv_1_normal_left5_9/pointwise_kernel", "shape": [1, 1, 176, 176], "dtype": "float32"}, {"name": "normal_A_block_0/block_1/separable_conv_block_normal_right1_0/separable_conv_1_normal_right1_0/depthwise_kernel", "shape": [3, 3, 44, 1], "dtype": "float32"}, {"name": "normal_A_block_0/block_1/separable_conv_block_normal_right1_0/separable_conv_1_normal_right1_0/pointwise_kernel", "shape": [1, 1, 44, 44], "dtype": "float32"}, {"name": "normal_A_block_1/block_1/separable_conv_block_normal_right1_1/separable_conv_1_normal_right1_1/depthwise_kernel", "shape": [3, 3, 44, 1], "dtype": "float32"}, {"name": "normal_A_block_1/block_1/separable_conv_block_normal_right1_1/separable_conv_1_normal_right1_1/pointwise_kernel", "shape": [1, 1, 44, 44], "dtype": "float32"}, {"name": "normal_A_block_10/block_1/separable_conv_block_normal_right1_10/separable_conv_1_normal_right1_10/depthwise_kernel", "shape": [3, 3, 176, 1], "dtype": "float32"}, {"name": "normal_A_block_10/block_1/separable_conv_block_normal_right1_10/separable_conv_1_normal_right1_10/pointwise_kernel", "shape": [1, 1, 176, 176], "dtype": "float32"}, {"name": "normal_A_block_11/block_1/separable_conv_block_normal_right1_11/separable_conv_1_normal_right1_11/depthwise_kernel", "shape": [3, 3, 176, 1], "dtype": "float32"}, {"name": "normal_A_block_11/block_1/separable_conv_block_normal_right1_11/separable_conv_1_normal_right1_11/pointwise_kernel", "shape": [1, 1, 176, 176], "dtype": "float32"}, {"name": "normal_A_block_12/block_1/separable_conv_block_normal_right1_12/separable_conv_1_normal_right1_12/depthwise_kernel", "shape": [3, 3, 176, 1], "dtype": "float32"}, {"name": "normal_A_block_12/block_1/separable_conv_block_normal_right1_12/separable_conv_1_normal_right1_12/pointwise_kernel", "shape": [1, 1, 176, 176], "dtype": "float32"}, {"name": "normal_A_block_2/block_1/separable_conv_block_normal_right1_2/separable_conv_1_normal_right1_2/depthwise_kernel", "shape": [3, 3, 44, 1], "dtype": "float32"}, {"name": "normal_A_block_2/block_1/separable_conv_block_normal_right1_2/separable_conv_1_normal_right1_2/pointwise_kernel", "shape": [1, 1, 44, 44], "dtype": "float32"}, {"name": "normal_A_block_3/block_1/separable_conv_block_normal_right1_3/separable_conv_1_normal_right1_3/depthwise_kernel", "shape": [3, 3, 44, 1], "dtype": "float32"}, {"name": "normal_A_block_3/block_1/separable_conv_block_normal_right1_3/separable_conv_1_normal_right1_3/pointwise_kernel", "shape": [1, 1, 44, 44], "dtype": "float32"}, {"name": "normal_A_block_5/block_1/separable_conv_block_normal_right1_5/separable_conv_1_normal_right1_5/depthwise_kernel", "shape": [3, 3, 88, 1], "dtype": "float32"}, {"name": "normal_A_block_5/block_1/separable_conv_block_normal_right1_5/separable_conv_1_normal_right1_5/pointwise_kernel", "shape": [1, 1, 88, 88], "dtype": "float32"}, {"name": "normal_A_block_6/block_1/separable_conv_block_normal_right1_6/separable_conv_1_normal_right1_6/depthwise_kernel", "shape": [3, 3, 88, 1], "dtype": "float32"}, {"name": "normal_A_block_6/block_1/separable_conv_block_normal_right1_6/separable_conv_1_normal_right1_6/pointwise_kernel", "shape": [1, 1, 88, 88], "dtype": "float32"}, {"name": "normal_A_block_7/block_1/separable_conv_block_normal_right1_7/separable_conv_1_normal_right1_7/depthwise_kernel", "shape": [3, 3, 88, 1], "dtype": "float32"}, {"name": "normal_A_block_7/block_1/separable_conv_block_normal_right1_7/separable_conv_1_normal_right1_7/pointwise_kernel", "shape": [1, 1, 88, 88], "dtype": "float32"}, {"name": "normal_A_block_8/block_1/separable_conv_block_normal_right1_8/separable_conv_1_normal_right1_8/depthwise_kernel", "shape": [3, 3, 88, 1], "dtype": "float32"}, {"name": "normal_A_block_8/block_1/separable_conv_block_normal_right1_8/separable_conv_1_normal_right1_8/pointwise_kernel", "shape": [1, 1, 88, 88], "dtype": "float32"}, {"name": "normal_A_block_9/block_1/separable_conv_block_normal_right1_9/separable_conv_1_normal_right1_9/depthwise_kernel", "shape": [3, 3, 176, 1], "dtype": "float32"}, {"name": "normal_A_block_9/block_1/separable_conv_block_normal_right1_9/separable_conv_1_normal_right1_9/pointwise_kernel", "shape": [1, 1, 176, 176], "dtype": "float32"}, {"name": "normal_A_block_0/block_2/separable_conv_block_normal_right2_0/separable_conv_1_normal_right2_0/depthwise_kernel", "shape": [3, 3, 44, 1], "dtype": "float32"}, {"name": "normal_A_block_0/block_2/separable_conv_block_normal_right2_0/separable_conv_1_normal_right2_0/pointwise_kernel", "shape": [1, 1, 44, 44], "dtype": "float32"}, {"name": "normal_A_block_1/block_2/separable_conv_block_normal_right2_1/separable_conv_1_normal_right2_1/depthwise_kernel", "shape": [3, 3, 44, 1], "dtype": "float32"}, {"name": "normal_A_block_1/block_2/separable_conv_block_normal_right2_1/separable_conv_1_normal_right2_1/pointwise_kernel", "shape": [1, 1, 44, 44], "dtype": "float32"}, {"name": "normal_A_block_10/block_2/separable_conv_block_normal_right2_10/separable_conv_1_normal_right2_10/depthwise_kernel", "shape": [3, 3, 176, 1], "dtype": "float32"}, {"name": "normal_A_block_10/block_2/separable_conv_block_normal_right2_10/separable_conv_1_normal_right2_10/pointwise_kernel", "shape": [1, 1, 176, 176], "dtype": "float32"}, {"name": "normal_A_block_11/block_2/separable_conv_block_normal_right2_11/separable_conv_1_normal_right2_11/depthwise_kernel", "shape": [3, 3, 176, 1], "dtype": "float32"}, {"name": "normal_A_block_11/block_2/separable_conv_block_normal_right2_11/separable_conv_1_normal_right2_11/pointwise_kernel", "shape": [1, 1, 176, 176], "dtype": "float32"}, {"name": "normal_A_block_12/block_2/separable_conv_block_normal_right2_12/separable_conv_1_normal_right2_12/depthwise_kernel", "shape": [3, 3, 176, 1], "dtype": "float32"}, {"name": "normal_A_block_12/block_2/separable_conv_block_normal_right2_12/separable_conv_1_normal_right2_12/pointwise_kernel", "shape": [1, 1, 176, 176], "dtype": "float32"}, {"name": "normal_A_block_2/block_2/separable_conv_block_normal_right2_2/separable_conv_1_normal_right2_2/depthwise_kernel", "shape": [3, 3, 44, 1], "dtype": "float32"}, {"name": "normal_A_block_2/block_2/separable_conv_block_normal_right2_2/separable_conv_1_normal_right2_2/pointwise_kernel", "shape": [1, 1, 44, 44], "dtype": "float32"}, {"name": "normal_A_block_3/block_2/separable_conv_block_normal_right2_3/separable_conv_1_normal_right2_3/depthwise_kernel", "shape": [3, 3, 44, 1], "dtype": "float32"}, {"name": "normal_A_block_3/block_2/separable_conv_block_normal_right2_3/separable_conv_1_normal_right2_3/pointwise_kernel", "shape": [1, 1, 44, 44], "dtype": "float32"}, {"name": "normal_A_block_5/block_2/separable_conv_block_normal_right2_5/separable_conv_1_normal_right2_5/depthwise_kernel", "shape": [3, 3, 88, 1], "dtype": "float32"}, {"name": "normal_A_block_5/block_2/separable_conv_block_normal_right2_5/separable_conv_1_normal_right2_5/pointwise_kernel", "shape": [1, 1, 88, 88], "dtype": "float32"}, {"name": "normal_A_block_6/block_2/separable_conv_block_normal_right2_6/separable_conv_1_normal_right2_6/depthwise_kernel", "shape": [3, 3, 88, 1], "dtype": "float32"}, {"name": "normal_A_block_6/block_2/separable_conv_block_normal_right2_6/separable_conv_1_normal_right2_6/pointwise_kernel", "shape": [1, 1, 88, 88], "dtype": "float32"}, {"name": "normal_A_block_7/block_2/separable_conv_block_normal_right2_7/separable_conv_1_normal_right2_7/depthwise_kernel", "shape": [3, 3, 88, 1], "dtype": "float32"}, {"name": "normal_A_block_7/block_2/separable_conv_block_normal_right2_7/separable_conv_1_normal_right2_7/pointwise_kernel", "shape": [1, 1, 88, 88], "dtype": "float32"}, {"name": "normal_A_block_8/block_2/separable_conv_block_normal_right2_8/separable_conv_1_normal_right2_8/depthwise_kernel", "shape": [3, 3, 88, 1], "dtype": "float32"}, {"name": "normal_A_block_8/block_2/separable_conv_block_normal_right2_8/separable_conv_1_normal_right2_8/pointwise_kernel", "shape": [1, 1, 88, 88], "dtype": "float32"}, {"name": "normal_A_block_9/block_2/separable_conv_block_normal_right2_9/separable_conv_1_normal_right2_9/depthwise_kernel", "shape": [3, 3, 176, 1], "dtype": "float32"}, {"name": "normal_A_block_9/block_2/separable_conv_block_normal_right2_9/separable_conv_1_normal_right2_9/pointwise_kernel", "shape": [1, 1, 176, 176], "dtype": "float32"}, {"name": "reduction_A_block_reduce_4/block_1/separable_conv_block_reduction_left1_reduce_4/separable_conv_1_reduction_left1_reduce_4/depthwise_kernel", "shape": [5, 5, 88, 1], "dtype": "float32"}, {"name": "reduction_A_block_reduce_4/block_1/separable_conv_block_reduction_left1_reduce_4/separable_conv_1_reduction_left1_reduce_4/pointwise_kernel", "shape": [1, 1, 88, 88], "dtype": "float32"}, {"name": "reduction_A_block_reduce_8/block_1/separable_conv_block_reduction_left1_reduce_8/separable_conv_1_reduction_left1_reduce_8/depthwise_kernel", "shape": [5, 5, 176, 1], "dtype": "float32"}, {"name": "reduction_A_block_reduce_8/block_1/separable_conv_block_reduction_left1_reduce_8/separable_conv_1_reduction_left1_reduce_8/pointwise_kernel", "shape": [1, 1, 176, 176], "dtype": "float32"}, {"name": "reduction_A_block_stem_1/block_1/separable_conv_block_reduction_left1_stem_1/separable_conv_1_reduction_left1_stem_1/depthwise_kernel", "shape": [5, 5, 11, 1], "dtype": "float32"}, {"name": "reduction_A_block_stem_1/block_1/separable_conv_block_reduction_left1_stem_1/separable_conv_1_reduction_left1_stem_1/pointwise_kernel", "shape": [1, 1, 11, 11], "dtype": "float32"}, {"name": "reduction_A_block_stem_2/block_1/separable_conv_block_reduction_left1_stem_2/separable_conv_1_reduction_left1_stem_2/depthwise_kernel", "shape": [5, 5, 22, 1], "dtype": "float32"}, {"name": "reduction_A_block_stem_2/block_1/separable_conv_block_reduction_left1_stem_2/separable_conv_1_reduction_left1_stem_2/pointwise_kernel", "shape": [1, 1, 22, 22], "dtype": "float32"}, {"name": "reduction_A_block_reduce_4/block_5/separable_conv_block_reduction_left4_reduce_4/separable_conv_1_reduction_left4_reduce_4/depthwise_kernel", "shape": [3, 3, 88, 1], "dtype": "float32"}, {"name": "reduction_A_block_reduce_4/block_5/separable_conv_block_reduction_left4_reduce_4/separable_conv_1_reduction_left4_reduce_4/pointwise_kernel", "shape": [1, 1, 88, 88], "dtype": "float32"}, {"name": "reduction_A_block_reduce_8/block_5/separable_conv_block_reduction_left4_reduce_8/separable_conv_1_reduction_left4_reduce_8/depthwise_kernel", "shape": [3, 3, 176, 1], "dtype": "float32"}, {"name": "reduction_A_block_reduce_8/block_5/separable_conv_block_reduction_left4_reduce_8/separable_conv_1_reduction_left4_reduce_8/pointwise_kernel", "shape": [1, 1, 176, 176], "dtype": "float32"}, {"name": "reduction_A_block_stem_1/block_5/separable_conv_block_reduction_left4_stem_1/separable_conv_1_reduction_left4_stem_1/depthwise_kernel", "shape": [3, 3, 11, 1], "dtype": "float32"}, {"name": "reduction_A_block_stem_1/block_5/separable_conv_block_reduction_left4_stem_1/separable_conv_1_reduction_left4_stem_1/pointwise_kernel", "shape": [1, 1, 11, 11], "dtype": "float32"}, {"name": "reduction_A_block_stem_2/block_5/separable_conv_block_reduction_left4_stem_2/separable_conv_1_reduction_left4_stem_2/depthwise_kernel", "shape": [3, 3, 22, 1], "dtype": "float32"}, {"name": "reduction_A_block_stem_2/block_5/separable_conv_block_reduction_left4_stem_2/separable_conv_1_reduction_left4_stem_2/pointwise_kernel", "shape": [1, 1, 22, 22], "dtype": "float32"}, {"name": "reduction_A_block_reduce_4/block_1/separable_conv_block_reduction_right1_reduce_4/separable_conv_1_reduction_right1_reduce_4/depthwise_kernel", "shape": [7, 7, 88, 1], "dtype": "float32"}, {"name": "reduction_A_block_reduce_4/block_1/separable_conv_block_reduction_right1_reduce_4/separable_conv_1_reduction_right1_reduce_4/pointwise_kernel", "shape": [1, 1, 88, 88], "dtype": "float32"}, {"name": "reduction_A_block_reduce_8/block_1/separable_conv_block_reduction_right1_reduce_8/separable_conv_1_reduction_right1_reduce_8/depthwise_kernel", "shape": [7, 7, 176, 1], "dtype": "float32"}, {"name": "reduction_A_block_reduce_8/block_1/separable_conv_block_reduction_right1_reduce_8/separable_conv_1_reduction_right1_reduce_8/pointwise_kernel", "shape": [1, 1, 176, 176], "dtype": "float32"}, {"name": "reduction_A_block_stem_1/block_1/separable_conv_block_reduction_right1_stem_1/separable_conv_1_reduction_right1_stem_1/depthwise_kernel", "shape": [7, 7, 32, 1], "dtype": "float32"}, {"name": "reduction_A_block_stem_1/block_1/separable_conv_block_reduction_right1_stem_1/separable_conv_1_reduction_right1_stem_1/pointwise_kernel", "shape": [1, 1, 32, 11], "dtype": "float32"}, {"name": "reduction_A_block_stem_2/block_1/separable_conv_block_reduction_right1_stem_2/separable_conv_1_reduction_right1_stem_2/depthwise_kernel", "shape": [7, 7, 22, 1], "dtype": "float32"}, {"name": "reduction_A_block_stem_2/block_1/separable_conv_block_reduction_right1_stem_2/separable_conv_1_reduction_right1_stem_2/pointwise_kernel", "shape": [1, 1, 22, 22], "dtype": "float32"}, {"name": "reduction_A_block_reduce_4/block_2/separable_conv_block_reduction_right2_reduce_4/separable_conv_1_reduction_right2_reduce_4/depthwise_kernel", "shape": [7, 7, 88, 1], "dtype": "float32"}, {"name": "reduction_A_block_reduce_4/block_2/separable_conv_block_reduction_right2_reduce_4/separable_conv_1_reduction_right2_reduce_4/pointwise_kernel", "shape": [1, 1, 88, 88], "dtype": "float32"}, {"name": "reduction_A_block_reduce_8/block_2/separable_conv_block_reduction_right2_reduce_8/separable_conv_1_reduction_right2_reduce_8/depthwise_kernel", "shape": [7, 7, 176, 1], "dtype": "float32"}, {"name": "reduction_A_block_reduce_8/block_2/separable_conv_block_reduction_right2_reduce_8/separable_conv_1_reduction_right2_reduce_8/pointwise_kernel", "shape": [1, 1, 176, 176], "dtype": "float32"}, {"name": "reduction_A_block_stem_1/block_2/separable_conv_block_reduction_right2_stem_1/separable_conv_1_reduction_right2_stem_1/depthwise_kernel", "shape": [7, 7, 32, 1], "dtype": "float32"}, {"name": "reduction_A_block_stem_1/block_2/separable_conv_block_reduction_right2_stem_1/separable_conv_1_reduction_right2_stem_1/pointwise_kernel", "shape": [1, 1, 32, 11], "dtype": "float32"}, {"name": "reduction_A_block_stem_2/block_2/separable_conv_block_reduction_right2_stem_2/separable_conv_1_reduction_right2_stem_2/depthwise_kernel", "shape": [7, 7, 22, 1], "dtype": "float32"}, {"name": "reduction_A_block_stem_2/block_2/separable_conv_block_reduction_right2_stem_2/separable_conv_1_reduction_right2_stem_2/pointwise_kernel", "shape": [1, 1, 22, 22], "dtype": "float32"}, {"name": "reduction_A_block_reduce_4/block_3/separable_conv_block_reduction_right3_reduce_4/separable_conv_1_reduction_right3_reduce_4/depthwise_kernel", "shape": [5, 5, 88, 1], "dtype": "float32"}, {"name": "reduction_A_block_reduce_4/block_3/separable_conv_block_reduction_right3_reduce_4/separable_conv_1_reduction_right3_reduce_4/pointwise_kernel", "shape": [1, 1, 88, 88], "dtype": "float32"}, {"name": "reduction_A_block_reduce_8/block_3/separable_conv_block_reduction_right3_reduce_8/separable_conv_1_reduction_right3_reduce_8/depthwise_kernel", "shape": [5, 5, 176, 1], "dtype": "float32"}, {"name": "reduction_A_block_reduce_8/block_3/separable_conv_block_reduction_right3_reduce_8/separable_conv_1_reduction_right3_reduce_8/pointwise_kernel", "shape": [1, 1, 176, 176], "dtype": "float32"}, {"name": "reduction_A_block_stem_1/block_3/separable_conv_block_reduction_right3_stem_1/separable_conv_1_reduction_right3_stem_1/depthwise_kernel", "shape": [5, 5, 32, 1], "dtype": "float32"}, {"name": "reduction_A_block_stem_1/block_3/separable_conv_block_reduction_right3_stem_1/separable_conv_1_reduction_right3_stem_1/pointwise_kernel", "shape": [1, 1, 32, 11], "dtype": "float32"}, {"name": "reduction_A_block_stem_2/block_3/separable_conv_block_reduction_right3_stem_2/separable_conv_1_reduction_right3_stem_2/depthwise_kernel", "shape": [5, 5, 22, 1], "dtype": "float32"}, {"name": "reduction_A_block_stem_2/block_3/separable_conv_block_reduction_right3_stem_2/separable_conv_1_reduction_right3_stem_2/pointwise_kernel", "shape": [1, 1, 22, 22], "dtype": "float32"}, {"name": "normal_A_block_0/block_1/separable_conv_block_normal_left1_0/separable_conv_2_bn_normal_left1_0/gamma", "shape": [44], "dtype": "float32"}, {"name": "normal_A_block_0/block_1/separable_conv_block_normal_left1_0/separable_conv_2_bn_normal_left1_0/beta", "shape": [44], "dtype": "float32"}, {"name": "normal_A_block_0/block_1/separable_conv_block_normal_left1_0/separable_conv_2_bn_normal_left1_0/moving_mean", "shape": [44], "dtype": "float32"}, {"name": "normal_A_block_0/block_1/separable_conv_block_normal_left1_0/separable_conv_2_bn_normal_left1_0/moving_variance", "shape": [44], "dtype": "float32"}, {"name": "normal_A_block_1/block_1/separable_conv_block_normal_left1_1/separable_conv_2_bn_normal_left1_1/gamma", "shape": [44], "dtype": "float32"}, {"name": "normal_A_block_1/block_1/separable_conv_block_normal_left1_1/separable_conv_2_bn_normal_left1_1/beta", "shape": [44], "dtype": "float32"}, {"name": "normal_A_block_1/block_1/separable_conv_block_normal_left1_1/separable_conv_2_bn_normal_left1_1/moving_mean", "shape": [44], "dtype": "float32"}, {"name": "normal_A_block_1/block_1/separable_conv_block_normal_left1_1/separable_conv_2_bn_normal_left1_1/moving_variance", "shape": [44], "dtype": "float32"}, {"name": "normal_A_block_10/block_1/separable_conv_block_normal_left1_10/separable_conv_2_bn_normal_left1_10/gamma", "shape": [176], "dtype": "float32"}, {"name": "normal_A_block_10/block_1/separable_conv_block_normal_left1_10/separable_conv_2_bn_normal_left1_10/beta", "shape": [176], "dtype": "float32"}, {"name": "normal_A_block_10/block_1/separable_conv_block_normal_left1_10/separable_conv_2_bn_normal_left1_10/moving_mean", "shape": [176], "dtype": "float32"}, {"name": "normal_A_block_10/block_1/separable_conv_block_normal_left1_10/separable_conv_2_bn_normal_left1_10/moving_variance", "shape": [176], "dtype": "float32"}, {"name": "normal_A_block_11/block_1/separable_conv_block_normal_left1_11/separable_conv_2_bn_normal_left1_11/gamma", "shape": [176], "dtype": "float32"}, {"name": "normal_A_block_11/block_1/separable_conv_block_normal_left1_11/separable_conv_2_bn_normal_left1_11/beta", "shape": [176], "dtype": "float32"}, {"name": "normal_A_block_11/block_1/separable_conv_block_normal_left1_11/separable_conv_2_bn_normal_left1_11/moving_mean", "shape": [176], "dtype": "float32"}, {"name": "normal_A_block_11/block_1/separable_conv_block_normal_left1_11/separable_conv_2_bn_normal_left1_11/moving_variance", "shape": [176], "dtype": "float32"}, {"name": "normal_A_block_12/block_1/separable_conv_block_normal_left1_12/separable_conv_2_bn_normal_left1_12/gamma", "shape": [176], "dtype": "float32"}, {"name": "normal_A_block_12/block_1/separable_conv_block_normal_left1_12/separable_conv_2_bn_normal_left1_12/beta", "shape": [176], "dtype": "float32"}, {"name": "normal_A_block_12/block_1/separable_conv_block_normal_left1_12/separable_conv_2_bn_normal_left1_12/moving_mean", "shape": [176], "dtype": "float32"}, {"name": "normal_A_block_12/block_1/separable_conv_block_normal_left1_12/separable_conv_2_bn_normal_left1_12/moving_variance", "shape": [176], "dtype": "float32"}, {"name": "normal_A_block_2/block_1/separable_conv_block_normal_left1_2/separable_conv_2_bn_normal_left1_2/gamma", "shape": [44], "dtype": "float32"}, {"name": "normal_A_block_2/block_1/separable_conv_block_normal_left1_2/separable_conv_2_bn_normal_left1_2/beta", "shape": [44], "dtype": "float32"}, {"name": "normal_A_block_2/block_1/separable_conv_block_normal_left1_2/separable_conv_2_bn_normal_left1_2/moving_mean", "shape": [44], "dtype": "float32"}, {"name": "normal_A_block_2/block_1/separable_conv_block_normal_left1_2/separable_conv_2_bn_normal_left1_2/moving_variance", "shape": [44], "dtype": "float32"}, {"name": "normal_A_block_3/block_1/separable_conv_block_normal_left1_3/separable_conv_2_bn_normal_left1_3/gamma", "shape": [44], "dtype": "float32"}, {"name": "normal_A_block_3/block_1/separable_conv_block_normal_left1_3/separable_conv_2_bn_normal_left1_3/beta", "shape": [44], "dtype": "float32"}, {"name": "normal_A_block_3/block_1/separable_conv_block_normal_left1_3/separable_conv_2_bn_normal_left1_3/moving_mean", "shape": [44], "dtype": "float32"}, {"name": "normal_A_block_3/block_1/separable_conv_block_normal_left1_3/separable_conv_2_bn_normal_left1_3/moving_variance", "shape": [44], "dtype": "float32"}, {"name": "normal_A_block_5/block_1/separable_conv_block_normal_left1_5/separable_conv_2_bn_normal_left1_5/gamma", "shape": [88], "dtype": "float32"}, {"name": "normal_A_block_5/block_1/separable_conv_block_normal_left1_5/separable_conv_2_bn_normal_left1_5/beta", "shape": [88], "dtype": "float32"}, {"name": "normal_A_block_5/block_1/separable_conv_block_normal_left1_5/separable_conv_2_bn_normal_left1_5/moving_mean", "shape": [88], "dtype": "float32"}, {"name": "normal_A_block_5/block_1/separable_conv_block_normal_left1_5/separable_conv_2_bn_normal_left1_5/moving_variance", "shape": [88], "dtype": "float32"}, {"name": "normal_A_block_6/block_1/separable_conv_block_normal_left1_6/separable_conv_2_bn_normal_left1_6/gamma", "shape": [88], "dtype": "float32"}, {"name": "normal_A_block_6/block_1/separable_conv_block_normal_left1_6/separable_conv_2_bn_normal_left1_6/beta", "shape": [88], "dtype": "float32"}, {"name": "normal_A_block_6/block_1/separable_conv_block_normal_left1_6/separable_conv_2_bn_normal_left1_6/moving_mean", "shape": [88], "dtype": "float32"}, {"name": "normal_A_block_6/block_1/separable_conv_block_normal_left1_6/separable_conv_2_bn_normal_left1_6/moving_variance", "shape": [88], "dtype": "float32"}, {"name": "normal_A_block_7/block_1/separable_conv_block_normal_left1_7/separable_conv_2_bn_normal_left1_7/gamma", "shape": [88], "dtype": "float32"}, {"name": "normal_A_block_7/block_1/separable_conv_block_normal_left1_7/separable_conv_2_bn_normal_left1_7/beta", "shape": [88], "dtype": "float32"}, {"name": "normal_A_block_7/block_1/separable_conv_block_normal_left1_7/separable_conv_2_bn_normal_left1_7/moving_mean", "shape": [88], "dtype": "float32"}, {"name": "normal_A_block_7/block_1/separable_conv_block_normal_left1_7/separable_conv_2_bn_normal_left1_7/moving_variance", "shape": [88], "dtype": "float32"}, {"name": "normal_A_block_8/block_1/separable_conv_block_normal_left1_8/separable_conv_2_bn_normal_left1_8/gamma", "shape": [88], "dtype": "float32"}, {"name": "normal_A_block_8/block_1/separable_conv_block_normal_left1_8/separable_conv_2_bn_normal_left1_8/beta", "shape": [88], "dtype": "float32"}, {"name": "normal_A_block_8/block_1/separable_conv_block_normal_left1_8/separable_conv_2_bn_normal_left1_8/moving_mean", "shape": [88], "dtype": "float32"}, {"name": "normal_A_block_8/block_1/separable_conv_block_normal_left1_8/separable_conv_2_bn_normal_left1_8/moving_variance", "shape": [88], "dtype": "float32"}, {"name": "normal_A_block_9/block_1/separable_conv_block_normal_left1_9/separable_conv_2_bn_normal_left1_9/gamma", "shape": [176], "dtype": "float32"}, {"name": "normal_A_block_9/block_1/separable_conv_block_normal_left1_9/separable_conv_2_bn_normal_left1_9/beta", "shape": [176], "dtype": "float32"}, {"name": "normal_A_block_9/block_1/separable_conv_block_normal_left1_9/separable_conv_2_bn_normal_left1_9/moving_mean", "shape": [176], "dtype": "float32"}, {"name": "normal_A_block_9/block_1/separable_conv_block_normal_left1_9/separable_conv_2_bn_normal_left1_9/moving_variance", "shape": [176], "dtype": "float32"}, {"name": "normal_A_block_0/block_2/separable_conv_block_normal_left2_0/separable_conv_2_bn_normal_left2_0/gamma", "shape": [44], "dtype": "float32"}, {"name": "normal_A_block_0/block_2/separable_conv_block_normal_left2_0/separable_conv_2_bn_normal_left2_0/beta", "shape": [44], "dtype": "float32"}, {"name": "normal_A_block_0/block_2/separable_conv_block_normal_left2_0/separable_conv_2_bn_normal_left2_0/moving_mean", "shape": [44], "dtype": "float32"}, {"name": "normal_A_block_0/block_2/separable_conv_block_normal_left2_0/separable_conv_2_bn_normal_left2_0/moving_variance", "shape": [44], "dtype": "float32"}, {"name": "normal_A_block_1/block_2/separable_conv_block_normal_left2_1/separable_conv_2_bn_normal_left2_1/gamma", "shape": [44], "dtype": "float32"}, {"name": "normal_A_block_1/block_2/separable_conv_block_normal_left2_1/separable_conv_2_bn_normal_left2_1/beta", "shape": [44], "dtype": "float32"}, {"name": "normal_A_block_1/block_2/separable_conv_block_normal_left2_1/separable_conv_2_bn_normal_left2_1/moving_mean", "shape": [44], "dtype": "float32"}, {"name": "normal_A_block_1/block_2/separable_conv_block_normal_left2_1/separable_conv_2_bn_normal_left2_1/moving_variance", "shape": [44], "dtype": "float32"}, {"name": "normal_A_block_10/block_2/separable_conv_block_normal_left2_10/separable_conv_2_bn_normal_left2_10/gamma", "shape": [176], "dtype": "float32"}, {"name": "normal_A_block_10/block_2/separable_conv_block_normal_left2_10/separable_conv_2_bn_normal_left2_10/beta", "shape": [176], "dtype": "float32"}, {"name": "normal_A_block_10/block_2/separable_conv_block_normal_left2_10/separable_conv_2_bn_normal_left2_10/moving_mean", "shape": [176], "dtype": "float32"}, {"name": "normal_A_block_10/block_2/separable_conv_block_normal_left2_10/separable_conv_2_bn_normal_left2_10/moving_variance", "shape": [176], "dtype": "float32"}, {"name": "normal_A_block_11/block_2/separable_conv_block_normal_left2_11/separable_conv_2_bn_normal_left2_11/gamma", "shape": [176], "dtype": "float32"}, {"name": "normal_A_block_11/block_2/separable_conv_block_normal_left2_11/separable_conv_2_bn_normal_left2_11/beta", "shape": [176], "dtype": "float32"}, {"name": "normal_A_block_11/block_2/separable_conv_block_normal_left2_11/separable_conv_2_bn_normal_left2_11/moving_mean", "shape": [176], "dtype": "float32"}, {"name": "normal_A_block_11/block_2/separable_conv_block_normal_left2_11/separable_conv_2_bn_normal_left2_11/moving_variance", "shape": [176], "dtype": "float32"}, {"name": "normal_A_block_12/block_2/separable_conv_block_normal_left2_12/separable_conv_2_bn_normal_left2_12/gamma", "shape": [176], "dtype": "float32"}, {"name": "normal_A_block_12/block_2/separable_conv_block_normal_left2_12/separable_conv_2_bn_normal_left2_12/beta", "shape": [176], "dtype": "float32"}, {"name": "normal_A_block_12/block_2/separable_conv_block_normal_left2_12/separable_conv_2_bn_normal_left2_12/moving_mean", "shape": [176], "dtype": "float32"}, {"name": "normal_A_block_12/block_2/separable_conv_block_normal_left2_12/separable_conv_2_bn_normal_left2_12/moving_variance", "shape": [176], "dtype": "float32"}, {"name": "normal_A_block_2/block_2/separable_conv_block_normal_left2_2/separable_conv_2_bn_normal_left2_2/gamma", "shape": [44], "dtype": "float32"}, {"name": "normal_A_block_2/block_2/separable_conv_block_normal_left2_2/separable_conv_2_bn_normal_left2_2/beta", "shape": [44], "dtype": "float32"}, {"name": "normal_A_block_2/block_2/separable_conv_block_normal_left2_2/separable_conv_2_bn_normal_left2_2/moving_mean", "shape": [44], "dtype": "float32"}, {"name": "normal_A_block_2/block_2/separable_conv_block_normal_left2_2/separable_conv_2_bn_normal_left2_2/moving_variance", "shape": [44], "dtype": "float32"}, {"name": "normal_A_block_3/block_2/separable_conv_block_normal_left2_3/separable_conv_2_bn_normal_left2_3/gamma", "shape": [44], "dtype": "float32"}, {"name": "normal_A_block_3/block_2/separable_conv_block_normal_left2_3/separable_conv_2_bn_normal_left2_3/beta", "shape": [44], "dtype": "float32"}, {"name": "normal_A_block_3/block_2/separable_conv_block_normal_left2_3/separable_conv_2_bn_normal_left2_3/moving_mean", "shape": [44], "dtype": "float32"}, {"name": "normal_A_block_3/block_2/separable_conv_block_normal_left2_3/separable_conv_2_bn_normal_left2_3/moving_variance", "shape": [44], "dtype": "float32"}, {"name": "normal_A_block_5/block_2/separable_conv_block_normal_left2_5/separable_conv_2_bn_normal_left2_5/gamma", "shape": [88], "dtype": "float32"}, {"name": "normal_A_block_5/block_2/separable_conv_block_normal_left2_5/separable_conv_2_bn_normal_left2_5/beta", "shape": [88], "dtype": "float32"}, {"name": "normal_A_block_5/block_2/separable_conv_block_normal_left2_5/separable_conv_2_bn_normal_left2_5/moving_mean", "shape": [88], "dtype": "float32"}, {"name": "normal_A_block_5/block_2/separable_conv_block_normal_left2_5/separable_conv_2_bn_normal_left2_5/moving_variance", "shape": [88], "dtype": "float32"}, {"name": "normal_A_block_6/block_2/separable_conv_block_normal_left2_6/separable_conv_2_bn_normal_left2_6/gamma", "shape": [88], "dtype": "float32"}, {"name": "normal_A_block_6/block_2/separable_conv_block_normal_left2_6/separable_conv_2_bn_normal_left2_6/beta", "shape": [88], "dtype": "float32"}, {"name": "normal_A_block_6/block_2/separable_conv_block_normal_left2_6/separable_conv_2_bn_normal_left2_6/moving_mean", "shape": [88], "dtype": "float32"}, {"name": "normal_A_block_6/block_2/separable_conv_block_normal_left2_6/separable_conv_2_bn_normal_left2_6/moving_variance", "shape": [88], "dtype": "float32"}, {"name": "normal_A_block_7/block_2/separable_conv_block_normal_left2_7/separable_conv_2_bn_normal_left2_7/gamma", "shape": [88], "dtype": "float32"}, {"name": "normal_A_block_7/block_2/separable_conv_block_normal_left2_7/separable_conv_2_bn_normal_left2_7/beta", "shape": [88], "dtype": "float32"}, {"name": "normal_A_block_7/block_2/separable_conv_block_normal_left2_7/separable_conv_2_bn_normal_left2_7/moving_mean", "shape": [88], "dtype": "float32"}, {"name": "normal_A_block_7/block_2/separable_conv_block_normal_left2_7/separable_conv_2_bn_normal_left2_7/moving_variance", "shape": [88], "dtype": "float32"}, {"name": "normal_A_block_8/block_2/separable_conv_block_normal_left2_8/separable_conv_2_bn_normal_left2_8/gamma", "shape": [88], "dtype": "float32"}, {"name": "normal_A_block_8/block_2/separable_conv_block_normal_left2_8/separable_conv_2_bn_normal_left2_8/beta", "shape": [88], "dtype": "float32"}, {"name": "normal_A_block_8/block_2/separable_conv_block_normal_left2_8/separable_conv_2_bn_normal_left2_8/moving_mean", "shape": [88], "dtype": "float32"}, {"name": "normal_A_block_8/block_2/separable_conv_block_normal_left2_8/separable_conv_2_bn_normal_left2_8/moving_variance", "shape": [88], "dtype": "float32"}, {"name": "normal_A_block_9/block_2/separable_conv_block_normal_left2_9/separable_conv_2_bn_normal_left2_9/gamma", "shape": [176], "dtype": "float32"}, {"name": "normal_A_block_9/block_2/separable_conv_block_normal_left2_9/separable_conv_2_bn_normal_left2_9/beta", "shape": [176], "dtype": "float32"}, {"name": "normal_A_block_9/block_2/separable_conv_block_normal_left2_9/separable_conv_2_bn_normal_left2_9/moving_mean", "shape": [176], "dtype": "float32"}, {"name": "normal_A_block_9/block_2/separable_conv_block_normal_left2_9/separable_conv_2_bn_normal_left2_9/moving_variance", "shape": [176], "dtype": "float32"}, {"name": "normal_A_block_0/block_5/separable_conv_block_normal_left5_0/separable_conv_2_bn_normal_left5_0/gamma", "shape": [44], "dtype": "float32"}, {"name": "normal_A_block_0/block_5/separable_conv_block_normal_left5_0/separable_conv_2_bn_normal_left5_0/beta", "shape": [44], "dtype": "float32"}, {"name": "normal_A_block_0/block_5/separable_conv_block_normal_left5_0/separable_conv_2_bn_normal_left5_0/moving_mean", "shape": [44], "dtype": "float32"}, {"name": "normal_A_block_0/block_5/separable_conv_block_normal_left5_0/separable_conv_2_bn_normal_left5_0/moving_variance", "shape": [44], "dtype": "float32"}, {"name": "normal_A_block_1/block_5/separable_conv_block_normal_left5_1/separable_conv_2_bn_normal_left5_1/gamma", "shape": [44], "dtype": "float32"}, {"name": "normal_A_block_1/block_5/separable_conv_block_normal_left5_1/separable_conv_2_bn_normal_left5_1/beta", "shape": [44], "dtype": "float32"}, {"name": "normal_A_block_1/block_5/separable_conv_block_normal_left5_1/separable_conv_2_bn_normal_left5_1/moving_mean", "shape": [44], "dtype": "float32"}, {"name": "normal_A_block_1/block_5/separable_conv_block_normal_left5_1/separable_conv_2_bn_normal_left5_1/moving_variance", "shape": [44], "dtype": "float32"}, {"name": "normal_A_block_10/block_5/separable_conv_block_normal_left5_10/separable_conv_2_bn_normal_left5_10/gamma", "shape": [176], "dtype": "float32"}, {"name": "normal_A_block_10/block_5/separable_conv_block_normal_left5_10/separable_conv_2_bn_normal_left5_10/beta", "shape": [176], "dtype": "float32"}, {"name": "normal_A_block_10/block_5/separable_conv_block_normal_left5_10/separable_conv_2_bn_normal_left5_10/moving_mean", "shape": [176], "dtype": "float32"}, {"name": "normal_A_block_10/block_5/separable_conv_block_normal_left5_10/separable_conv_2_bn_normal_left5_10/moving_variance", "shape": [176], "dtype": "float32"}, {"name": "normal_A_block_11/block_5/separable_conv_block_normal_left5_11/separable_conv_2_bn_normal_left5_11/gamma", "shape": [176], "dtype": "float32"}, {"name": "normal_A_block_11/block_5/separable_conv_block_normal_left5_11/separable_conv_2_bn_normal_left5_11/beta", "shape": [176], "dtype": "float32"}, {"name": "normal_A_block_11/block_5/separable_conv_block_normal_left5_11/separable_conv_2_bn_normal_left5_11/moving_mean", "shape": [176], "dtype": "float32"}, {"name": "normal_A_block_11/block_5/separable_conv_block_normal_left5_11/separable_conv_2_bn_normal_left5_11/moving_variance", "shape": [176], "dtype": "float32"}, {"name": "normal_A_block_12/block_5/separable_conv_block_normal_left5_12/separable_conv_2_bn_normal_left5_12/gamma", "shape": [176], "dtype": "float32"}, {"name": "normal_A_block_12/block_5/separable_conv_block_normal_left5_12/separable_conv_2_bn_normal_left5_12/beta", "shape": [176], "dtype": "float32"}, {"name": "normal_A_block_12/block_5/separable_conv_block_normal_left5_12/separable_conv_2_bn_normal_left5_12/moving_mean", "shape": [176], "dtype": "float32"}, {"name": "normal_A_block_12/block_5/separable_conv_block_normal_left5_12/separable_conv_2_bn_normal_left5_12/moving_variance", "shape": [176], "dtype": "float32"}, {"name": "normal_A_block_2/block_5/separable_conv_block_normal_left5_2/separable_conv_2_bn_normal_left5_2/gamma", "shape": [44], "dtype": "float32"}, {"name": "normal_A_block_2/block_5/separable_conv_block_normal_left5_2/separable_conv_2_bn_normal_left5_2/beta", "shape": [44], "dtype": "float32"}, {"name": "normal_A_block_2/block_5/separable_conv_block_normal_left5_2/separable_conv_2_bn_normal_left5_2/moving_mean", "shape": [44], "dtype": "float32"}, {"name": "normal_A_block_2/block_5/separable_conv_block_normal_left5_2/separable_conv_2_bn_normal_left5_2/moving_variance", "shape": [44], "dtype": "float32"}, {"name": "normal_A_block_3/block_5/separable_conv_block_normal_left5_3/separable_conv_2_bn_normal_left5_3/gamma", "shape": [44], "dtype": "float32"}, {"name": "normal_A_block_3/block_5/separable_conv_block_normal_left5_3/separable_conv_2_bn_normal_left5_3/beta", "shape": [44], "dtype": "float32"}, {"name": "normal_A_block_3/block_5/separable_conv_block_normal_left5_3/separable_conv_2_bn_normal_left5_3/moving_mean", "shape": [44], "dtype": "float32"}, {"name": "normal_A_block_3/block_5/separable_conv_block_normal_left5_3/separable_conv_2_bn_normal_left5_3/moving_variance", "shape": [44], "dtype": "float32"}, {"name": "normal_A_block_5/block_5/separable_conv_block_normal_left5_5/separable_conv_2_bn_normal_left5_5/gamma", "shape": [88], "dtype": "float32"}, {"name": "normal_A_block_5/block_5/separable_conv_block_normal_left5_5/separable_conv_2_bn_normal_left5_5/beta", "shape": [88], "dtype": "float32"}, {"name": "normal_A_block_5/block_5/separable_conv_block_normal_left5_5/separable_conv_2_bn_normal_left5_5/moving_mean", "shape": [88], "dtype": "float32"}, {"name": "normal_A_block_5/block_5/separable_conv_block_normal_left5_5/separable_conv_2_bn_normal_left5_5/moving_variance", "shape": [88], "dtype": "float32"}, {"name": "normal_A_block_6/block_5/separable_conv_block_normal_left5_6/separable_conv_2_bn_normal_left5_6/gamma", "shape": [88], "dtype": "float32"}, {"name": "normal_A_block_6/block_5/separable_conv_block_normal_left5_6/separable_conv_2_bn_normal_left5_6/beta", "shape": [88], "dtype": "float32"}, {"name": "normal_A_block_6/block_5/separable_conv_block_normal_left5_6/separable_conv_2_bn_normal_left5_6/moving_mean", "shape": [88], "dtype": "float32"}, {"name": "normal_A_block_6/block_5/separable_conv_block_normal_left5_6/separable_conv_2_bn_normal_left5_6/moving_variance", "shape": [88], "dtype": "float32"}, {"name": "normal_A_block_7/block_5/separable_conv_block_normal_left5_7/separable_conv_2_bn_normal_left5_7/gamma", "shape": [88], "dtype": "float32"}, {"name": "normal_A_block_7/block_5/separable_conv_block_normal_left5_7/separable_conv_2_bn_normal_left5_7/beta", "shape": [88], "dtype": "float32"}, {"name": "normal_A_block_7/block_5/separable_conv_block_normal_left5_7/separable_conv_2_bn_normal_left5_7/moving_mean", "shape": [88], "dtype": "float32"}, {"name": "normal_A_block_7/block_5/separable_conv_block_normal_left5_7/separable_conv_2_bn_normal_left5_7/moving_variance", "shape": [88], "dtype": "float32"}, {"name": "normal_A_block_8/block_5/separable_conv_block_normal_left5_8/separable_conv_2_bn_normal_left5_8/gamma", "shape": [88], "dtype": "float32"}, {"name": "normal_A_block_8/block_5/separable_conv_block_normal_left5_8/separable_conv_2_bn_normal_left5_8/beta", "shape": [88], "dtype": "float32"}, {"name": "normal_A_block_8/block_5/separable_conv_block_normal_left5_8/separable_conv_2_bn_normal_left5_8/moving_mean", "shape": [88], "dtype": "float32"}, {"name": "normal_A_block_8/block_5/separable_conv_block_normal_left5_8/separable_conv_2_bn_normal_left5_8/moving_variance", "shape": [88], "dtype": "float32"}, {"name": "normal_A_block_9/block_5/separable_conv_block_normal_left5_9/separable_conv_2_bn_normal_left5_9/gamma", "shape": [176], "dtype": "float32"}, {"name": "normal_A_block_9/block_5/separable_conv_block_normal_left5_9/separable_conv_2_bn_normal_left5_9/beta", "shape": [176], "dtype": "float32"}, {"name": "normal_A_block_9/block_5/separable_conv_block_normal_left5_9/separable_conv_2_bn_normal_left5_9/moving_mean", "shape": [176], "dtype": "float32"}, {"name": "normal_A_block_9/block_5/separable_conv_block_normal_left5_9/separable_conv_2_bn_normal_left5_9/moving_variance", "shape": [176], "dtype": "float32"}, {"name": "normal_A_block_0/block_1/separable_conv_block_normal_right1_0/separable_conv_2_bn_normal_right1_0/gamma", "shape": [44], "dtype": "float32"}, {"name": "normal_A_block_0/block_1/separable_conv_block_normal_right1_0/separable_conv_2_bn_normal_right1_0/beta", "shape": [44], "dtype": "float32"}, {"name": "normal_A_block_0/block_1/separable_conv_block_normal_right1_0/separable_conv_2_bn_normal_right1_0/moving_mean", "shape": [44], "dtype": "float32"}, {"name": "normal_A_block_0/block_1/separable_conv_block_normal_right1_0/separable_conv_2_bn_normal_right1_0/moving_variance", "shape": [44], "dtype": "float32"}, {"name": "normal_A_block_1/block_1/separable_conv_block_normal_right1_1/separable_conv_2_bn_normal_right1_1/gamma", "shape": [44], "dtype": "float32"}, {"name": "normal_A_block_1/block_1/separable_conv_block_normal_right1_1/separable_conv_2_bn_normal_right1_1/beta", "shape": [44], "dtype": "float32"}, {"name": "normal_A_block_1/block_1/separable_conv_block_normal_right1_1/separable_conv_2_bn_normal_right1_1/moving_mean", "shape": [44], "dtype": "float32"}, {"name": "normal_A_block_1/block_1/separable_conv_block_normal_right1_1/separable_conv_2_bn_normal_right1_1/moving_variance", "shape": [44], "dtype": "float32"}, {"name": "normal_A_block_10/block_1/separable_conv_block_normal_right1_10/separable_conv_2_bn_normal_right1_10/gamma", "shape": [176], "dtype": "float32"}, {"name": "normal_A_block_10/block_1/separable_conv_block_normal_right1_10/separable_conv_2_bn_normal_right1_10/beta", "shape": [176], "dtype": "float32"}, {"name": "normal_A_block_10/block_1/separable_conv_block_normal_right1_10/separable_conv_2_bn_normal_right1_10/moving_mean", "shape": [176], "dtype": "float32"}, {"name": "normal_A_block_10/block_1/separable_conv_block_normal_right1_10/separable_conv_2_bn_normal_right1_10/moving_variance", "shape": [176], "dtype": "float32"}, {"name": "normal_A_block_11/block_1/separable_conv_block_normal_right1_11/separable_conv_2_bn_normal_right1_11/gamma", "shape": [176], "dtype": "float32"}, {"name": "normal_A_block_11/block_1/separable_conv_block_normal_right1_11/separable_conv_2_bn_normal_right1_11/beta", "shape": [176], "dtype": "float32"}, {"name": "normal_A_block_11/block_1/separable_conv_block_normal_right1_11/separable_conv_2_bn_normal_right1_11/moving_mean", "shape": [176], "dtype": "float32"}, {"name": "normal_A_block_11/block_1/separable_conv_block_normal_right1_11/separable_conv_2_bn_normal_right1_11/moving_variance", "shape": [176], "dtype": "float32"}, {"name": "normal_A_block_12/block_1/separable_conv_block_normal_right1_12/separable_conv_2_bn_normal_right1_12/gamma", "shape": [176], "dtype": "float32"}, {"name": "normal_A_block_12/block_1/separable_conv_block_normal_right1_12/separable_conv_2_bn_normal_right1_12/beta", "shape": [176], "dtype": "float32"}, {"name": "normal_A_block_12/block_1/separable_conv_block_normal_right1_12/separable_conv_2_bn_normal_right1_12/moving_mean", "shape": [176], "dtype": "float32"}, {"name": "normal_A_block_12/block_1/separable_conv_block_normal_right1_12/separable_conv_2_bn_normal_right1_12/moving_variance", "shape": [176], "dtype": "float32"}, {"name": "normal_A_block_2/block_1/separable_conv_block_normal_right1_2/separable_conv_2_bn_normal_right1_2/gamma", "shape": [44], "dtype": "float32"}, {"name": "normal_A_block_2/block_1/separable_conv_block_normal_right1_2/separable_conv_2_bn_normal_right1_2/beta", "shape": [44], "dtype": "float32"}, {"name": "normal_A_block_2/block_1/separable_conv_block_normal_right1_2/separable_conv_2_bn_normal_right1_2/moving_mean", "shape": [44], "dtype": "float32"}, {"name": "normal_A_block_2/block_1/separable_conv_block_normal_right1_2/separable_conv_2_bn_normal_right1_2/moving_variance", "shape": [44], "dtype": "float32"}, {"name": "normal_A_block_3/block_1/separable_conv_block_normal_right1_3/separable_conv_2_bn_normal_right1_3/gamma", "shape": [44], "dtype": "float32"}, {"name": "normal_A_block_3/block_1/separable_conv_block_normal_right1_3/separable_conv_2_bn_normal_right1_3/beta", "shape": [44], "dtype": "float32"}, {"name": "normal_A_block_3/block_1/separable_conv_block_normal_right1_3/separable_conv_2_bn_normal_right1_3/moving_mean", "shape": [44], "dtype": "float32"}, {"name": "normal_A_block_3/block_1/separable_conv_block_normal_right1_3/separable_conv_2_bn_normal_right1_3/moving_variance", "shape": [44], "dtype": "float32"}, {"name": "normal_A_block_5/block_1/separable_conv_block_normal_right1_5/separable_conv_2_bn_normal_right1_5/gamma", "shape": [88], "dtype": "float32"}, {"name": "normal_A_block_5/block_1/separable_conv_block_normal_right1_5/separable_conv_2_bn_normal_right1_5/beta", "shape": [88], "dtype": "float32"}, {"name": "normal_A_block_5/block_1/separable_conv_block_normal_right1_5/separable_conv_2_bn_normal_right1_5/moving_mean", "shape": [88], "dtype": "float32"}, {"name": "normal_A_block_5/block_1/separable_conv_block_normal_right1_5/separable_conv_2_bn_normal_right1_5/moving_variance", "shape": [88], "dtype": "float32"}, {"name": "normal_A_block_6/block_1/separable_conv_block_normal_right1_6/separable_conv_2_bn_normal_right1_6/gamma", "shape": [88], "dtype": "float32"}, {"name": "normal_A_block_6/block_1/separable_conv_block_normal_right1_6/separable_conv_2_bn_normal_right1_6/beta", "shape": [88], "dtype": "float32"}, {"name": "normal_A_block_6/block_1/separable_conv_block_normal_right1_6/separable_conv_2_bn_normal_right1_6/moving_mean", "shape": [88], "dtype": "float32"}, {"name": "normal_A_block_6/block_1/separable_conv_block_normal_right1_6/separable_conv_2_bn_normal_right1_6/moving_variance", "shape": [88], "dtype": "float32"}, {"name": "normal_A_block_7/block_1/separable_conv_block_normal_right1_7/separable_conv_2_bn_normal_right1_7/gamma", "shape": [88], "dtype": "float32"}, {"name": "normal_A_block_7/block_1/separable_conv_block_normal_right1_7/separable_conv_2_bn_normal_right1_7/beta", "shape": [88], "dtype": "float32"}, {"name": "normal_A_block_7/block_1/separable_conv_block_normal_right1_7/separable_conv_2_bn_normal_right1_7/moving_mean", "shape": [88], "dtype": "float32"}, {"name": "normal_A_block_7/block_1/separable_conv_block_normal_right1_7/separable_conv_2_bn_normal_right1_7/moving_variance", "shape": [88], "dtype": "float32"}, {"name": "normal_A_block_8/block_1/separable_conv_block_normal_right1_8/separable_conv_2_bn_normal_right1_8/gamma", "shape": [88], "dtype": "float32"}, {"name": "normal_A_block_8/block_1/separable_conv_block_normal_right1_8/separable_conv_2_bn_normal_right1_8/beta", "shape": [88], "dtype": "float32"}, {"name": "normal_A_block_8/block_1/separable_conv_block_normal_right1_8/separable_conv_2_bn_normal_right1_8/moving_mean", "shape": [88], "dtype": "float32"}, {"name": "normal_A_block_8/block_1/separable_conv_block_normal_right1_8/separable_conv_2_bn_normal_right1_8/moving_variance", "shape": [88], "dtype": "float32"}, {"name": "normal_A_block_9/block_1/separable_conv_block_normal_right1_9/separable_conv_2_bn_normal_right1_9/gamma", "shape": [176], "dtype": "float32"}, {"name": "normal_A_block_9/block_1/separable_conv_block_normal_right1_9/separable_conv_2_bn_normal_right1_9/beta", "shape": [176], "dtype": "float32"}, {"name": "normal_A_block_9/block_1/separable_conv_block_normal_right1_9/separable_conv_2_bn_normal_right1_9/moving_mean", "shape": [176], "dtype": "float32"}, {"name": "normal_A_block_9/block_1/separable_conv_block_normal_right1_9/separable_conv_2_bn_normal_right1_9/moving_variance", "shape": [176], "dtype": "float32"}, {"name": "normal_A_block_0/block_2/separable_conv_block_normal_right2_0/separable_conv_2_bn_normal_right2_0/gamma", "shape": [44], "dtype": "float32"}, {"name": "normal_A_block_0/block_2/separable_conv_block_normal_right2_0/separable_conv_2_bn_normal_right2_0/beta", "shape": [44], "dtype": "float32"}, {"name": "normal_A_block_0/block_2/separable_conv_block_normal_right2_0/separable_conv_2_bn_normal_right2_0/moving_mean", "shape": [44], "dtype": "float32"}, {"name": "normal_A_block_0/block_2/separable_conv_block_normal_right2_0/separable_conv_2_bn_normal_right2_0/moving_variance", "shape": [44], "dtype": "float32"}, {"name": "normal_A_block_1/block_2/separable_conv_block_normal_right2_1/separable_conv_2_bn_normal_right2_1/gamma", "shape": [44], "dtype": "float32"}, {"name": "normal_A_block_1/block_2/separable_conv_block_normal_right2_1/separable_conv_2_bn_normal_right2_1/beta", "shape": [44], "dtype": "float32"}, {"name": "normal_A_block_1/block_2/separable_conv_block_normal_right2_1/separable_conv_2_bn_normal_right2_1/moving_mean", "shape": [44], "dtype": "float32"}, {"name": "normal_A_block_1/block_2/separable_conv_block_normal_right2_1/separable_conv_2_bn_normal_right2_1/moving_variance", "shape": [44], "dtype": "float32"}, {"name": "normal_A_block_10/block_2/separable_conv_block_normal_right2_10/separable_conv_2_bn_normal_right2_10/gamma", "shape": [176], "dtype": "float32"}, {"name": "normal_A_block_10/block_2/separable_conv_block_normal_right2_10/separable_conv_2_bn_normal_right2_10/beta", "shape": [176], "dtype": "float32"}, {"name": "normal_A_block_10/block_2/separable_conv_block_normal_right2_10/separable_conv_2_bn_normal_right2_10/moving_mean", "shape": [176], "dtype": "float32"}, {"name": "normal_A_block_10/block_2/separable_conv_block_normal_right2_10/separable_conv_2_bn_normal_right2_10/moving_variance", "shape": [176], "dtype": "float32"}, {"name": "normal_A_block_11/block_2/separable_conv_block_normal_right2_11/separable_conv_2_bn_normal_right2_11/gamma", "shape": [176], "dtype": "float32"}, {"name": "normal_A_block_11/block_2/separable_conv_block_normal_right2_11/separable_conv_2_bn_normal_right2_11/beta", "shape": [176], "dtype": "float32"}, {"name": "normal_A_block_11/block_2/separable_conv_block_normal_right2_11/separable_conv_2_bn_normal_right2_11/moving_mean", "shape": [176], "dtype": "float32"}, {"name": "normal_A_block_11/block_2/separable_conv_block_normal_right2_11/separable_conv_2_bn_normal_right2_11/moving_variance", "shape": [176], "dtype": "float32"}, {"name": "normal_A_block_12/block_2/separable_conv_block_normal_right2_12/separable_conv_2_bn_normal_right2_12/gamma", "shape": [176], "dtype": "float32"}, {"name": "normal_A_block_12/block_2/separable_conv_block_normal_right2_12/separable_conv_2_bn_normal_right2_12/beta", "shape": [176], "dtype": "float32"}, {"name": "normal_A_block_12/block_2/separable_conv_block_normal_right2_12/separable_conv_2_bn_normal_right2_12/moving_mean", "shape": [176], "dtype": "float32"}, {"name": "normal_A_block_12/block_2/separable_conv_block_normal_right2_12/separable_conv_2_bn_normal_right2_12/moving_variance", "shape": [176], "dtype": "float32"}, {"name": "normal_A_block_2/block_2/separable_conv_block_normal_right2_2/separable_conv_2_bn_normal_right2_2/gamma", "shape": [44], "dtype": "float32"}, {"name": "normal_A_block_2/block_2/separable_conv_block_normal_right2_2/separable_conv_2_bn_normal_right2_2/beta", "shape": [44], "dtype": "float32"}, {"name": "normal_A_block_2/block_2/separable_conv_block_normal_right2_2/separable_conv_2_bn_normal_right2_2/moving_mean", "shape": [44], "dtype": "float32"}, {"name": "normal_A_block_2/block_2/separable_conv_block_normal_right2_2/separable_conv_2_bn_normal_right2_2/moving_variance", "shape": [44], "dtype": "float32"}, {"name": "normal_A_block_3/block_2/separable_conv_block_normal_right2_3/separable_conv_2_bn_normal_right2_3/gamma", "shape": [44], "dtype": "float32"}, {"name": "normal_A_block_3/block_2/separable_conv_block_normal_right2_3/separable_conv_2_bn_normal_right2_3/beta", "shape": [44], "dtype": "float32"}, {"name": "normal_A_block_3/block_2/separable_conv_block_normal_right2_3/separable_conv_2_bn_normal_right2_3/moving_mean", "shape": [44], "dtype": "float32"}, {"name": "normal_A_block_3/block_2/separable_conv_block_normal_right2_3/separable_conv_2_bn_normal_right2_3/moving_variance", "shape": [44], "dtype": "float32"}, {"name": "normal_A_block_5/block_2/separable_conv_block_normal_right2_5/separable_conv_2_bn_normal_right2_5/gamma", "shape": [88], "dtype": "float32"}, {"name": "normal_A_block_5/block_2/separable_conv_block_normal_right2_5/separable_conv_2_bn_normal_right2_5/beta", "shape": [88], "dtype": "float32"}, {"name": "normal_A_block_5/block_2/separable_conv_block_normal_right2_5/separable_conv_2_bn_normal_right2_5/moving_mean", "shape": [88], "dtype": "float32"}, {"name": "normal_A_block_5/block_2/separable_conv_block_normal_right2_5/separable_conv_2_bn_normal_right2_5/moving_variance", "shape": [88], "dtype": "float32"}, {"name": "normal_A_block_6/block_2/separable_conv_block_normal_right2_6/separable_conv_2_bn_normal_right2_6/gamma", "shape": [88], "dtype": "float32"}, {"name": "normal_A_block_6/block_2/separable_conv_block_normal_right2_6/separable_conv_2_bn_normal_right2_6/beta", "shape": [88], "dtype": "float32"}, {"name": "normal_A_block_6/block_2/separable_conv_block_normal_right2_6/separable_conv_2_bn_normal_right2_6/moving_mean", "shape": [88], "dtype": "float32"}, {"name": "normal_A_block_6/block_2/separable_conv_block_normal_right2_6/separable_conv_2_bn_normal_right2_6/moving_variance", "shape": [88], "dtype": "float32"}, {"name": "normal_A_block_7/block_2/separable_conv_block_normal_right2_7/separable_conv_2_bn_normal_right2_7/gamma", "shape": [88], "dtype": "float32"}, {"name": "normal_A_block_7/block_2/separable_conv_block_normal_right2_7/separable_conv_2_bn_normal_right2_7/beta", "shape": [88], "dtype": "float32"}, {"name": "normal_A_block_7/block_2/separable_conv_block_normal_right2_7/separable_conv_2_bn_normal_right2_7/moving_mean", "shape": [88], "dtype": "float32"}, {"name": "normal_A_block_7/block_2/separable_conv_block_normal_right2_7/separable_conv_2_bn_normal_right2_7/moving_variance", "shape": [88], "dtype": "float32"}, {"name": "normal_A_block_8/block_2/separable_conv_block_normal_right2_8/separable_conv_2_bn_normal_right2_8/gamma", "shape": [88], "dtype": "float32"}, {"name": "normal_A_block_8/block_2/separable_conv_block_normal_right2_8/separable_conv_2_bn_normal_right2_8/beta", "shape": [88], "dtype": "float32"}, {"name": "normal_A_block_8/block_2/separable_conv_block_normal_right2_8/separable_conv_2_bn_normal_right2_8/moving_mean", "shape": [88], "dtype": "float32"}, {"name": "normal_A_block_8/block_2/separable_conv_block_normal_right2_8/separable_conv_2_bn_normal_right2_8/moving_variance", "shape": [88], "dtype": "float32"}, {"name": "normal_A_block_9/block_2/separable_conv_block_normal_right2_9/separable_conv_2_bn_normal_right2_9/gamma", "shape": [176], "dtype": "float32"}, {"name": "normal_A_block_9/block_2/separable_conv_block_normal_right2_9/separable_conv_2_bn_normal_right2_9/beta", "shape": [176], "dtype": "float32"}, {"name": "normal_A_block_9/block_2/separable_conv_block_normal_right2_9/separable_conv_2_bn_normal_right2_9/moving_mean", "shape": [176], "dtype": "float32"}, {"name": "normal_A_block_9/block_2/separable_conv_block_normal_right2_9/separable_conv_2_bn_normal_right2_9/moving_variance", "shape": [176], "dtype": "float32"}, {"name": "reduction_A_block_reduce_4/block_1/separable_conv_block_reduction_left1_reduce_4/separable_conv_2_bn_reduction_left1_reduce_4/gamma", "shape": [88], "dtype": "float32"}, {"name": "reduction_A_block_reduce_4/block_1/separable_conv_block_reduction_left1_reduce_4/separable_conv_2_bn_reduction_left1_reduce_4/beta", "shape": [88], "dtype": "float32"}, {"name": "reduction_A_block_reduce_4/block_1/separable_conv_block_reduction_left1_reduce_4/separable_conv_2_bn_reduction_left1_reduce_4/moving_mean", "shape": [88], "dtype": "float32"}, {"name": "reduction_A_block_reduce_4/block_1/separable_conv_block_reduction_left1_reduce_4/separable_conv_2_bn_reduction_left1_reduce_4/moving_variance", "shape": [88], "dtype": "float32"}, {"name": "reduction_A_block_reduce_8/block_1/separable_conv_block_reduction_left1_reduce_8/separable_conv_2_bn_reduction_left1_reduce_8/gamma", "shape": [176], "dtype": "float32"}, {"name": "reduction_A_block_reduce_8/block_1/separable_conv_block_reduction_left1_reduce_8/separable_conv_2_bn_reduction_left1_reduce_8/beta", "shape": [176], "dtype": "float32"}, {"name": "reduction_A_block_reduce_8/block_1/separable_conv_block_reduction_left1_reduce_8/separable_conv_2_bn_reduction_left1_reduce_8/moving_mean", "shape": [176], "dtype": "float32"}, {"name": "reduction_A_block_reduce_8/block_1/separable_conv_block_reduction_left1_reduce_8/separable_conv_2_bn_reduction_left1_reduce_8/moving_variance", "shape": [176], "dtype": "float32"}, {"name": "reduction_A_block_stem_1/block_1/separable_conv_block_reduction_left1_stem_1/separable_conv_2_bn_reduction_left1_stem_1/gamma", "shape": [11], "dtype": "float32"}, {"name": "reduction_A_block_stem_1/block_1/separable_conv_block_reduction_left1_stem_1/separable_conv_2_bn_reduction_left1_stem_1/beta", "shape": [11], "dtype": "float32"}, {"name": "reduction_A_block_stem_1/block_1/separable_conv_block_reduction_left1_stem_1/separable_conv_2_bn_reduction_left1_stem_1/moving_mean", "shape": [11], "dtype": "float32"}, {"name": "reduction_A_block_stem_1/block_1/separable_conv_block_reduction_left1_stem_1/separable_conv_2_bn_reduction_left1_stem_1/moving_variance", "shape": [11], "dtype": "float32"}, {"name": "reduction_A_block_stem_2/block_1/separable_conv_block_reduction_left1_stem_2/separable_conv_2_bn_reduction_left1_stem_2/gamma", "shape": [22], "dtype": "float32"}, {"name": "reduction_A_block_stem_2/block_1/separable_conv_block_reduction_left1_stem_2/separable_conv_2_bn_reduction_left1_stem_2/beta", "shape": [22], "dtype": "float32"}, {"name": "reduction_A_block_stem_2/block_1/separable_conv_block_reduction_left1_stem_2/separable_conv_2_bn_reduction_left1_stem_2/moving_mean", "shape": [22], "dtype": "float32"}, {"name": "reduction_A_block_stem_2/block_1/separable_conv_block_reduction_left1_stem_2/separable_conv_2_bn_reduction_left1_stem_2/moving_variance", "shape": [22], "dtype": "float32"}, {"name": "reduction_A_block_reduce_4/block_5/separable_conv_block_reduction_left4_reduce_4/separable_conv_2_bn_reduction_left4_reduce_4/gamma", "shape": [88], "dtype": "float32"}, {"name": "reduction_A_block_reduce_4/block_5/separable_conv_block_reduction_left4_reduce_4/separable_conv_2_bn_reduction_left4_reduce_4/beta", "shape": [88], "dtype": "float32"}, {"name": "reduction_A_block_reduce_4/block_5/separable_conv_block_reduction_left4_reduce_4/separable_conv_2_bn_reduction_left4_reduce_4/moving_mean", "shape": [88], "dtype": "float32"}, {"name": "reduction_A_block_reduce_4/block_5/separable_conv_block_reduction_left4_reduce_4/separable_conv_2_bn_reduction_left4_reduce_4/moving_variance", "shape": [88], "dtype": "float32"}, {"name": "reduction_A_block_reduce_8/block_5/separable_conv_block_reduction_left4_reduce_8/separable_conv_2_bn_reduction_left4_reduce_8/gamma", "shape": [176], "dtype": "float32"}, {"name": "reduction_A_block_reduce_8/block_5/separable_conv_block_reduction_left4_reduce_8/separable_conv_2_bn_reduction_left4_reduce_8/beta", "shape": [176], "dtype": "float32"}, {"name": "reduction_A_block_reduce_8/block_5/separable_conv_block_reduction_left4_reduce_8/separable_conv_2_bn_reduction_left4_reduce_8/moving_mean", "shape": [176], "dtype": "float32"}, {"name": "reduction_A_block_reduce_8/block_5/separable_conv_block_reduction_left4_reduce_8/separable_conv_2_bn_reduction_left4_reduce_8/moving_variance", "shape": [176], "dtype": "float32"}, {"name": "reduction_A_block_stem_1/block_5/separable_conv_block_reduction_left4_stem_1/separable_conv_2_bn_reduction_left4_stem_1/gamma", "shape": [11], "dtype": "float32"}, {"name": "reduction_A_block_stem_1/block_5/separable_conv_block_reduction_left4_stem_1/separable_conv_2_bn_reduction_left4_stem_1/beta", "shape": [11], "dtype": "float32"}, {"name": "reduction_A_block_stem_1/block_5/separable_conv_block_reduction_left4_stem_1/separable_conv_2_bn_reduction_left4_stem_1/moving_mean", "shape": [11], "dtype": "float32"}, {"name": "reduction_A_block_stem_1/block_5/separable_conv_block_reduction_left4_stem_1/separable_conv_2_bn_reduction_left4_stem_1/moving_variance", "shape": [11], "dtype": "float32"}, {"name": "reduction_A_block_stem_2/block_5/separable_conv_block_reduction_left4_stem_2/separable_conv_2_bn_reduction_left4_stem_2/gamma", "shape": [22], "dtype": "float32"}, {"name": "reduction_A_block_stem_2/block_5/separable_conv_block_reduction_left4_stem_2/separable_conv_2_bn_reduction_left4_stem_2/beta", "shape": [22], "dtype": "float32"}, {"name": "reduction_A_block_stem_2/block_5/separable_conv_block_reduction_left4_stem_2/separable_conv_2_bn_reduction_left4_stem_2/moving_mean", "shape": [22], "dtype": "float32"}, {"name": "reduction_A_block_stem_2/block_5/separable_conv_block_reduction_left4_stem_2/separable_conv_2_bn_reduction_left4_stem_2/moving_variance", "shape": [22], "dtype": "float32"}, {"name": "reduction_A_block_reduce_4/block_1/separable_conv_block_reduction_right1_reduce_4/separable_conv_2_bn_reduction_right1_reduce_4/gamma", "shape": [88], "dtype": "float32"}, {"name": "reduction_A_block_reduce_4/block_1/separable_conv_block_reduction_right1_reduce_4/separable_conv_2_bn_reduction_right1_reduce_4/beta", "shape": [88], "dtype": "float32"}, {"name": "reduction_A_block_reduce_4/block_1/separable_conv_block_reduction_right1_reduce_4/separable_conv_2_bn_reduction_right1_reduce_4/moving_mean", "shape": [88], "dtype": "float32"}, {"name": "reduction_A_block_reduce_4/block_1/separable_conv_block_reduction_right1_reduce_4/separable_conv_2_bn_reduction_right1_reduce_4/moving_variance", "shape": [88], "dtype": "float32"}, {"name": "reduction_A_block_reduce_8/block_1/separable_conv_block_reduction_right1_reduce_8/separable_conv_2_bn_reduction_right1_reduce_8/gamma", "shape": [176], "dtype": "float32"}, {"name": "reduction_A_block_reduce_8/block_1/separable_conv_block_reduction_right1_reduce_8/separable_conv_2_bn_reduction_right1_reduce_8/beta", "shape": [176], "dtype": "float32"}, {"name": "reduction_A_block_reduce_8/block_1/separable_conv_block_reduction_right1_reduce_8/separable_conv_2_bn_reduction_right1_reduce_8/moving_mean", "shape": [176], "dtype": "float32"}, {"name": "reduction_A_block_reduce_8/block_1/separable_conv_block_reduction_right1_reduce_8/separable_conv_2_bn_reduction_right1_reduce_8/moving_variance", "shape": [176], "dtype": "float32"}, {"name": "reduction_A_block_stem_1/block_1/separable_conv_block_reduction_right1_stem_1/separable_conv_2_bn_reduction_right1_stem_1/gamma", "shape": [11], "dtype": "float32"}, {"name": "reduction_A_block_stem_1/block_1/separable_conv_block_reduction_right1_stem_1/separable_conv_2_bn_reduction_right1_stem_1/beta", "shape": [11], "dtype": "float32"}, {"name": "reduction_A_block_stem_1/block_1/separable_conv_block_reduction_right1_stem_1/separable_conv_2_bn_reduction_right1_stem_1/moving_mean", "shape": [11], "dtype": "float32"}, {"name": "reduction_A_block_stem_1/block_1/separable_conv_block_reduction_right1_stem_1/separable_conv_2_bn_reduction_right1_stem_1/moving_variance", "shape": [11], "dtype": "float32"}, {"name": "reduction_A_block_stem_2/block_1/separable_conv_block_reduction_right1_stem_2/separable_conv_2_bn_reduction_right1_stem_2/gamma", "shape": [22], "dtype": "float32"}, {"name": "reduction_A_block_stem_2/block_1/separable_conv_block_reduction_right1_stem_2/separable_conv_2_bn_reduction_right1_stem_2/beta", "shape": [22], "dtype": "float32"}, {"name": "reduction_A_block_stem_2/block_1/separable_conv_block_reduction_right1_stem_2/separable_conv_2_bn_reduction_right1_stem_2/moving_mean", "shape": [22], "dtype": "float32"}, {"name": "reduction_A_block_stem_2/block_1/separable_conv_block_reduction_right1_stem_2/separable_conv_2_bn_reduction_right1_stem_2/moving_variance", "shape": [22], "dtype": "float32"}, {"name": "reduction_A_block_reduce_4/block_2/separable_conv_block_reduction_right2_reduce_4/separable_conv_2_bn_reduction_right2_reduce_4/gamma", "shape": [88], "dtype": "float32"}, {"name": "reduction_A_block_reduce_4/block_2/separable_conv_block_reduction_right2_reduce_4/separable_conv_2_bn_reduction_right2_reduce_4/beta", "shape": [88], "dtype": "float32"}, {"name": "reduction_A_block_reduce_4/block_2/separable_conv_block_reduction_right2_reduce_4/separable_conv_2_bn_reduction_right2_reduce_4/moving_mean", "shape": [88], "dtype": "float32"}, {"name": "reduction_A_block_reduce_4/block_2/separable_conv_block_reduction_right2_reduce_4/separable_conv_2_bn_reduction_right2_reduce_4/moving_variance", "shape": [88], "dtype": "float32"}, {"name": "reduction_A_block_reduce_8/block_2/separable_conv_block_reduction_right2_reduce_8/separable_conv_2_bn_reduction_right2_reduce_8/gamma", "shape": [176], "dtype": "float32"}, {"name": "reduction_A_block_reduce_8/block_2/separable_conv_block_reduction_right2_reduce_8/separable_conv_2_bn_reduction_right2_reduce_8/beta", "shape": [176], "dtype": "float32"}, {"name": "reduction_A_block_reduce_8/block_2/separable_conv_block_reduction_right2_reduce_8/separable_conv_2_bn_reduction_right2_reduce_8/moving_mean", "shape": [176], "dtype": "float32"}, {"name": "reduction_A_block_reduce_8/block_2/separable_conv_block_reduction_right2_reduce_8/separable_conv_2_bn_reduction_right2_reduce_8/moving_variance", "shape": [176], "dtype": "float32"}, {"name": "reduction_A_block_stem_1/block_2/separable_conv_block_reduction_right2_stem_1/separable_conv_2_bn_reduction_right2_stem_1/gamma", "shape": [11], "dtype": "float32"}, {"name": "reduction_A_block_stem_1/block_2/separable_conv_block_reduction_right2_stem_1/separable_conv_2_bn_reduction_right2_stem_1/beta", "shape": [11], "dtype": "float32"}, {"name": "reduction_A_block_stem_1/block_2/separable_conv_block_reduction_right2_stem_1/separable_conv_2_bn_reduction_right2_stem_1/moving_mean", "shape": [11], "dtype": "float32"}, {"name": "reduction_A_block_stem_1/block_2/separable_conv_block_reduction_right2_stem_1/separable_conv_2_bn_reduction_right2_stem_1/moving_variance", "shape": [11], "dtype": "float32"}, {"name": "reduction_A_block_stem_2/block_2/separable_conv_block_reduction_right2_stem_2/separable_conv_2_bn_reduction_right2_stem_2/gamma", "shape": [22], "dtype": "float32"}, {"name": "reduction_A_block_stem_2/block_2/separable_conv_block_reduction_right2_stem_2/separable_conv_2_bn_reduction_right2_stem_2/beta", "shape": [22], "dtype": "float32"}, {"name": "reduction_A_block_stem_2/block_2/separable_conv_block_reduction_right2_stem_2/separable_conv_2_bn_reduction_right2_stem_2/moving_mean", "shape": [22], "dtype": "float32"}, {"name": "reduction_A_block_stem_2/block_2/separable_conv_block_reduction_right2_stem_2/separable_conv_2_bn_reduction_right2_stem_2/moving_variance", "shape": [22], "dtype": "float32"}, {"name": "reduction_A_block_reduce_4/block_3/separable_conv_block_reduction_right3_reduce_4/separable_conv_2_bn_reduction_right3_reduce_4/gamma", "shape": [88], "dtype": "float32"}, {"name": "reduction_A_block_reduce_4/block_3/separable_conv_block_reduction_right3_reduce_4/separable_conv_2_bn_reduction_right3_reduce_4/beta", "shape": [88], "dtype": "float32"}, {"name": "reduction_A_block_reduce_4/block_3/separable_conv_block_reduction_right3_reduce_4/separable_conv_2_bn_reduction_right3_reduce_4/moving_mean", "shape": [88], "dtype": "float32"}, {"name": "reduction_A_block_reduce_4/block_3/separable_conv_block_reduction_right3_reduce_4/separable_conv_2_bn_reduction_right3_reduce_4/moving_variance", "shape": [88], "dtype": "float32"}, {"name": "reduction_A_block_reduce_8/block_3/separable_conv_block_reduction_right3_reduce_8/separable_conv_2_bn_reduction_right3_reduce_8/gamma", "shape": [176], "dtype": "float32"}, {"name": "reduction_A_block_reduce_8/block_3/separable_conv_block_reduction_right3_reduce_8/separable_conv_2_bn_reduction_right3_reduce_8/beta", "shape": [176], "dtype": "float32"}, {"name": "reduction_A_block_reduce_8/block_3/separable_conv_block_reduction_right3_reduce_8/separable_conv_2_bn_reduction_right3_reduce_8/moving_mean", "shape": [176], "dtype": "float32"}, {"name": "reduction_A_block_reduce_8/block_3/separable_conv_block_reduction_right3_reduce_8/separable_conv_2_bn_reduction_right3_reduce_8/moving_variance", "shape": [176], "dtype": "float32"}, {"name": "reduction_A_block_stem_1/block_3/separable_conv_block_reduction_right3_stem_1/separable_conv_2_bn_reduction_right3_stem_1/gamma", "shape": [11], "dtype": "float32"}, {"name": "reduction_A_block_stem_1/block_3/separable_conv_block_reduction_right3_stem_1/separable_conv_2_bn_reduction_right3_stem_1/beta", "shape": [11], "dtype": "float32"}, {"name": "reduction_A_block_stem_1/block_3/separable_conv_block_reduction_right3_stem_1/separable_conv_2_bn_reduction_right3_stem_1/moving_mean", "shape": [11], "dtype": "float32"}, {"name": "reduction_A_block_stem_1/block_3/separable_conv_block_reduction_right3_stem_1/separable_conv_2_bn_reduction_right3_stem_1/moving_variance", "shape": [11], "dtype": "float32"}, {"name": "reduction_A_block_stem_2/block_3/…
inbound_nodes": [[["separable_conv_2_bn_normal_left1_10", 0, 0, {}], ["separable_conv_2_bn_normal_right1_10", 0, 0, {}]]], "config": {"name": "normal_add_1_10", "trainable": true}, "class_name": "Add"}, {"name": "normal_add_2_10", "inbound_nodes": [[["separable_conv_2_bn_normal_left2_10", 0, 0, {}], ["separable_conv_2_bn_normal_right2_10", 0, 0, {}]]], "config": {"name": "normal_add_2_10", "trainable": true}, "class_name": "Add"}, {"name": "normal_add_3_10", "inbound_nodes": [[["normal_left3_10", 0, 0, {}], ["adjust_bn_10", 0, 0, {}]]], "config": {"name": "normal_add_3_10", "trainable": true}, "class_name": "Add"}, {"name": "normal_add_4_10", "inbound_nodes": [[["normal_left4_10", 0, 0, {}], ["normal_right4_10", 0, 0, {}]]], "config": {"name": "normal_add_4_10", "trainable": true}, "class_name": "Add"}, {"name": "normal_add_5_10", "inbound_nodes": [[["separable_conv_2_bn_normal_left5_10", 0, 0, {}], ["normal_bn_1_10", 0, 0, {}]]], "config": {"name": "normal_add_5_10", "trainable": true}, "class_name": "Add"}, {"name": "normal_concat_10", "inbound_nodes": [[["adjust_bn_10", 0, 0, {}], ["normal_add_1_10", 0, 0, {}], ["normal_add_2_10", 0, 0, {}], ["normal_add_3_10", 0, 0, {}], ["normal_add_4_10", 0, 0, {}], ["normal_add_5_10", 0, 0, {}]]], "config": {"name": "normal_concat_10", "axis": -1, "trainable": true}, "class_name": "Concatenate"}, {"name": "activation_164", "inbound_nodes": [[["normal_concat_9", 0, 0, {}]]], "config": {"name": "activation_164", "activation": "relu", "trainable": true}, "class_name": "Activation"}, {"name": "activation_165", "inbound_nodes": [[["normal_concat_10", 0, 0, {}]]], "config": {"name": "activation_165", "activation": "relu", "trainable": true}, "class_name": "Activation"}, {"name": "adjust_conv_projection_11", "inbound_nodes": [[["activation_164", 0, 0, {}]]], "config": {"use_bias": false, "trainable": true, "bias_initializer": {"config": {}, "class_name": "Zeros"}, "strides": [1, 1], "kernel_constraint": null, "name": "adjust_conv_projection_11", "kernel_regularizer": null, "dilation_rate": [1, 1], "bias_regularizer": null, "kernel_initializer": {"config": {"mode": "fan_in", "distribution": "normal", "scale": 2.0, "seed": null}, "class_name": "VarianceScaling"}, "kernel_size": [1, 1], "activation": "linear", "bias_constraint": null, "activity_regularizer": null, "padding": "same", "data_format": "channels_last", "filters": 176}, "class_name": "Conv2D"}, {"name": "normal_conv_1_11", "inbound_nodes": [[["activation_165", 0, 0, {}]]], "config": {"use_bias": false, "trainable": true, "bias_initializer": {"config": {}, "class_name": "Zeros"}, "strides": [1, 1], "kernel_constraint": null, "name": "normal_conv_1_11", "kernel_regularizer": null, "dilation_rate": [1, 1], "bias_regularizer": null, "kernel_initializer": {"config": {"mode": "fan_in", "distribution": "normal", "scale": 2.0, "seed": null}, "class_name": "VarianceScaling"}, "kernel_size": [1, 1], "activation": "linear", "bias_constraint": null, "activity_regularizer": null, "padding": "same", "data_format": "channels_last", "filters": 176}, "class_name": "Conv2D"}, {"name": "adjust_bn_11", "inbound_nodes": [[["adjust_conv_projection_11", 0, 0, {}]]], "config": {"trainable": true, "moving_mean_initializer": {"config": {}, "class_name": "Zeros"}, "momentum": 0.9997, "name": "adjust_bn_11", "moving_variance_initializer": {"config": {}, "class_name": "Ones"}, "beta_initializer": {"config": {}, "class_name": "Zeros"}, "gamma_regularizer": null, "beta_constraint": null, "epsilon": 0.001, "center": true, "gamma_constraint": null, "gamma_initializer": {"config": {}, "class_name": "Ones"}, "beta_regularizer": null, "axis": -1, "scale": true}, "class_name": "BatchNormalization"}, {"name": "normal_bn_1_11", "inbound_nodes": [[["normal_conv_1_11", 0, 0, {}]]], "config": {"trainable": true, "moving_mean_initializer": {"config": {}, "class_name": "Zeros"}, "momentum": 0.9997, "name": "normal_bn_1_11", "moving_variance_initializer": {"config": {}, "class_name": "Ones"}, "beta_initializer": {"config": {}, "class_name": "Zeros"}, "gamma_regularizer": null, "beta_constraint": null, "epsilon": 0.001, "center": true, "gamma_constraint": null, "gamma_initializer": {"config": {}, "class_name": "Ones"}, "beta_regularizer": null, "axis": -1, "scale": true}, "class_name": "BatchNormalization"}, {"name": "activation_166", "inbound_nodes": [[["normal_bn_1_11", 0, 0, {}]]], "config": {"name": "activation_166", "activation": "relu", "trainable": true}, "class_name": "Activation"}, {"name": "activation_168", "inbound_nodes": [[["adjust_bn_11", 0, 0, {}]]], "config": {"name": "activation_168", "activation": "relu", "trainable": true}, "class_name": "Activation"}, {"name": "activation_170", "inbound_nodes": [[["adjust_bn_11", 0, 0, {}]]], "config": {"name": "activation_170", "activation": "relu", "trainable": true}, "class_name": "Activation"}, {"name": "activation_172", "inbound_nodes": [[["adjust_bn_11", 0, 0, {}]]], "config": {"name": "activation_172", "activation": "relu", "trainable": true}, "class_name": "Activation"}, {"name": "activation_174", "inbound_nodes": [[["normal_bn_1_11", 0, 0, {}]]], "config": {"name": "activation_174", "activation": "relu", "trainable": true}, "class_name": "Activation"}, {"name": "separable_conv_1_normal_left1_11", "inbound_nodes": [[["activation_166", 0, 0, {}]]], "config": {"use_bias": false, "trainable": true, "bias_initializer": {"config": {}, "class_name": "Zeros"}, "pointwise_constraint": null, "strides": [1, 1], "pointwise_regularizer": null, "name": "separable_conv_1_normal_left1_11", "depthwise_initializer": {"config": {"mode": "fan_avg", "distribution": "uniform", "scale": 1.0, "seed": null}, "class_name": "VarianceScaling"}, "dilation_rate": [1, 1], "depthwise_regularizer": null, "depth_multiplier": 1, "bias_regularizer": null, "pointwise_initializer": {"config": {"mode": "fan_avg", "distribution": "uniform", "scale": 1.0, "seed": null}, "class_name": "VarianceScaling"}, "depthwise_constraint": null, "kernel_size": [5, 5], "activation": "linear", "bias_constraint": null, "activity_regularizer": null, "padding": "same", "data_format": "channels_last", "filters": 176}, "class_name": "SeparableConv2D"}, {"name": "separable_conv_1_normal_right1_11", "inbound_nodes": [[["activation_168", 0, 0, {}]]], "config": {"use_bias": false, "trainable": true, "bias_initializer": {"config": {}, "class_name": "Zeros"}, "pointwise_constraint": null, "strides": [1, 1], "pointwise_regularizer": null, "name": "separable_conv_1_normal_right1_11", "depthwise_initializer": {"config": {"mode": "fan_avg", "distribution": "uniform", "scale": 1.0, "seed": null}, "class_name": "VarianceScaling"}, "dilation_rate": [1, 1], "depthwise_regularizer": null, "depth_multiplier": 1, "bias_regularizer": null, "pointwise_initializer": {"config": {"mode": "fan_avg", "distribution": "uniform", "scale": 1.0, "seed": null}, "class_name": "VarianceScaling"}, "depthwise_constraint": null, "kernel_size": [3, 3], "activation": "linear", "bias_constraint": null, "activity_regularizer": null, "padding": "same", "data_format": "channels_last", "filters": 176}, "class_name": "SeparableConv2D"}, {"name": "separable_conv_1_normal_left2_11", "inbound_nodes": [[["activation_170", 0, 0, {}]]], "config": {"use_bias": false, "trainable": true, "bias_initializer": {"config": {}, "class_name": "Zeros"}, "pointwise_constraint": null, "strides": [1, 1], "pointwise_regularizer": null, "name": "separable_conv_1_normal_left2_11", "depthwise_initializer": {"config": {"mode": "fan_avg", "distribution": "uniform", "scale": 1.0, "seed": null}, "class_name": "VarianceScaling"}, "dilation_rate": [1, 1], "depthwise_regularizer": null, "depth_multiplier": 1, "bias_regularizer": null, "pointwise_initializer": {"config": {"mode": "fan_avg", "distribution": "uniform", "scale": 1.0, "seed": null}, "class_name": "VarianceScaling"}, "depthwise_constraint": null, "kernel_size": [5, 5], "activation": "linear", "bias_constraint": null, "activity_regularizer": null, "padding": "same", "data_format": "channels_last", "filters": 176}, "class_name": "SeparableConv2D"}, {"name": "separable_conv_1_normal_right2_11", "inbound_nodes": [[["activation_172", 0, 0, {}]]], "config": {"use_bias": false, "trainable": true, "bias_initializer": {"config": {}, "class_name": "Zeros"}, "pointwise_constraint": null, "strides": [1, 1], "pointwise_regularizer": null, "name": "separable_conv_1_normal_right2_11", "depthwise_initializer": {"config": {"mode": "fan_avg", "distribution": "uniform", "scale": 1.0, "seed": null}, "class_name": "VarianceScaling"}, "dilation_rate": [1, 1], "depthwise_regularizer": null, "depth_multiplier": 1, "bias_regularizer": null, "pointwise_initializer": {"config": {"mode": "fan_avg", "distribution": "uniform", "scale": 1.0, "seed": null}, "class_name": "VarianceScaling"}, "depthwise_constraint": null, "kernel_size": [3, 3], "activation": "linear", "bias_constraint": null, "activity_regularizer": null, "padding": "same", "data_format": "channels_last", "filters": 176}, "class_name": "SeparableConv2D"}, {"name": "separable_conv_1_normal_left5_11", "inbound_nodes": [[["activation_174", 0, 0, {}]]], "config": {"use_bias": false, "trainable": true, "bias_initializer": {"config": {}, "class_name": "Zeros"}, "pointwise_constraint": null, "strides": [1, 1], "pointwise_regularizer": null, "name": "separable_conv_1_normal_left5_11", "depthwise_initializer": {"config": {"mode": "fan_avg", "distribution": "uniform", "scale": 1.0, "seed": null}, "class_name": "VarianceScaling"}, "dilation_rate": [1, 1], "depthwise_regularizer": null, "depth_multiplier": 1, "bias_regularizer": null, "pointwise_initializer": {"config": {"mode": "fan_avg", "distribution": "uniform", "scale": 1.0, "seed": null}, "class_name": "VarianceScaling"}, "depthwise_constraint": null, "kernel_size": [3, 3], "activation": "linear", "bias_constraint": null, "activity_regularizer": null, "padding": "same", "data_format": "channels_last", "filters": 176}, "class_name": "SeparableConv2D"}, {"name": "separable_conv_1_bn_normal_left1_11", "inbound_nodes": [[["separable_conv_1_normal_left1_11", 0, 0, {}]]], "config": {"trainable": true, "moving_mean_initializer": {"config": {}, "class_name": "Zeros"}, "momentum": 0.9997, "name": "separable_conv_1_bn_normal_left1_11", "moving_variance_initializer": {"config": {}, "class_name": "Ones"}, "beta_initializer": {"config": {}, "class_name": "Zeros"}, "gamma_regularizer": null, "beta_constraint": null, "epsilon": 0.001, "center": true, "gamma_constraint": null, "gamma_initializer": {"config": {}, "class_name": "Ones"}, "beta_regularizer": null, "axis": -1, "scale": true}, "class_name": "BatchNormalization"}, {"name": "separable_conv_1_bn_normal_right1_11", "inbound_nodes": [[["separable_conv_1_normal_right1_11", 0, 0, {}]]], "config": {"trainable": true, "moving_mean_initializer": {"config": {}, "class_name": "Zeros"}, "momentum": 0.9997, "name": "separable_conv_1_bn_normal_right1_11", "moving_variance_initializer": {"config": {}, "class_name": "Ones"}, "beta_initializer": {"config": {}, "class_name": "Zeros"}, "gamma_regularizer": null, "beta_constraint": null, "epsilon": 0.001, "center": true, "gamma_constraint": null, "gamma_initializer": {"config": {}, "class_name": "Ones"}, "beta_regularizer": null, "axis": -1, "scale": true}, "class_name": "BatchNormalization"}, {"name": "separable_conv_1_bn_normal_left2_11", "inbound_nodes": [[["separable_conv_1_normal_left2_11", 0, 0, {}]]], "config": {"trainable": true, "moving_mean_initializer": {"config": {}, "class_name": "Zeros"}, "momentum": 0.9997, "name": "separable_conv_1_bn_normal_left2_11", "moving_variance_initializer": {"config": {}, "class_name": "Ones"}, "beta_initializer": {"config": {}, "class_name": "Zeros"}, "gamma_regularizer": null, "beta_constraint": null, "epsilon": 0.001, "center": true, "gamma_constraint": null, "gamma_initializer": {"config": {}, "class_name": "Ones"}, "beta_regularizer": null, "axis": -1, "scale": true}, "class_name": "BatchNormalization"}, {"name": "separable_conv_1_bn_normal_right2_11", "inbound_nodes": [[["separable_conv_1_normal_right2_11", 0, 0, {}]]], "config": {"trainable": true, "moving_mean_initializer": {"config": {}, "class_name": "Zeros"}, "momentum": 0.9997, "name": "separable_conv_1_bn_normal_right2_11", "moving_variance_initializer": {"config": {}, "class_name": "Ones"}, "beta_initializer": {"config": {}, "class_name": "Zeros"}, "gamma_regularizer": null, "beta_constraint": null, "epsilon": 0.001, "center": true, "gamma_constraint": null, "gamma_initializer": {"config": {}, "class_name": "Ones"}, "beta_regularizer": null, "axis": -1, "scale": true}, "class_name": "BatchNormalization"}, {"name": "separable_conv_1_bn_normal_left5_11", "inbound_nodes": [[["separable_conv_1_normal_left5_11", 0, 0, {}]]], "config": {"trainable": true, "moving_mean_initializer": {"config": {}, "class_name": "Zeros"}, "momentum": 0.9997, "name": "separable_conv_1_bn_normal_left5_11", "moving_variance_initializer": {"config": {}, "class_name": "Ones"}, "beta_initializer": {"config": {}, "class_name": "Zeros"}, "gamma_regularizer": null, "beta_constraint": null, "epsilon": 0.001, "center": true, "gamma_constraint": null, "gamma_initializer": {"config": {}, "class_name": "Ones"}, "beta_regularizer": null, "axis": -1, "scale": true}, "class_name": "BatchNormalization"}, {"name": "activation_167", "inbound_nodes": [[["separable_conv_1_bn_normal_left1_11", 0, 0, {}]]], "config": {"name": "activation_167", "activation": "relu", "trainable": true}, "class_name": "Activation"}, {"name": "activation_169", "inbound_nodes": [[["separable_conv_1_bn_normal_right1_11", 0, 0, {}]]], "config": {"name": "activation_169", "activation": "relu", "trainable": true}, "class_name": "Activation"}, {"name": "activation_171", "inbound_nodes": [[["separable_conv_1_bn_normal_left2_11", 0, 0, {}]]], "config": {"name": "activation_171", "activation": "relu", "trainable": true}, "class_name": "Activation"}, {"name": "activation_173", "inbound_nodes": [[["separable_conv_1_bn_normal_right2_11", 0, 0, {}]]], "config": {"name": "activation_173", "activation": "relu", "trainable": true}, "class_name": "Activation"}, {"name": "activation_175", "inbound_nodes": [[["separable_conv_1_bn_normal_left5_11", 0, 0, {}]]], "config": {"name": "activation_175", "activation": "relu", "trainable": true}, "class_name": "Activation"}, {"name": "separable_conv_2_normal_left1_11", "inbound_nodes": [[["activation_167", 0, 0, {}]]], "config": {"use_bias": false, "trainable": true, "bias_initializer": {"config": {}, "class_name": "Zeros"}, "pointwise_constraint": null, "strides": [1, 1], "pointwise_regularizer": null, "name": "separable_conv_2_normal_left1_11", "depthwise_initializer": {"config": {"mode": "fan_avg", "distribution": "uniform", "scale": 1.0, "seed": null}, "class_name": "VarianceScaling"}, "dilation_rate": [1, 1], "depthwise_regularizer": null, "depth_multiplier": 1, "bias_regularizer": null, "pointwise_initializer": {"config": {"mode": "fan_avg", "distribution": "uniform", "scale": 1.0, "seed": null}, "class_name": "VarianceScaling"}, "depthwise_constraint": null, "kernel_size": [5, 5], "activation": "linear", "bias_constraint": null, "activity_regularizer": null, "padding": "same", "data_format": "channels_last", "filters": 176}, "class_name": "SeparableConv2D"}, {"name": "separable_conv_2_normal_right1_11", "inbound_nodes": [[["activation_169", 0, 0, {}]]], "config": {"use_bias": false, "trainable": true, "bias_initializer": {"config": {}, "class_name": "Zeros"}, "pointwise_constraint": null, "strides": [1, 1], "pointwise_regularizer": null, "name": "separable_conv_2_normal_right1_11", "depthwise_initializer": {"config": {"mode": "fan_avg", "distribution": "uniform", "scale": 1.0, "seed": null}, "class_name": "VarianceScaling"}, "dilation_rate": [1, 1], "depthwise_regularizer": null, "depth_multiplier": 1, "bias_regularizer": null, "pointwise_initializer": {"config": {"mode": "fan_avg", "distribution": "uniform", "scale": 1.0, "seed": null}, "class_name": "VarianceScaling"}, "depthwise_constraint": null, "kernel_size": [3, 3], "activation": "linear", "bias_constraint": null, "activity_regularizer": null, "padding": "same", "data_format": "channels_last", "filters": 176}, "class_name": "SeparableConv2D"}, {"name": "separable_conv_2_normal_left2_11", "inbound_nodes": [[["activation_171", 0, 0, {}]]], "config": {"use_bias": false, "trainable": true, "bias_initializer": {"config": {}, "class_name": "Zeros"}, "pointwise_constraint": null, "strides": [1, 1], "pointwise_regularizer": null, "name": "separable_conv_2_normal_left2_11", "depthwise_initializer": {"config": {"mode": "fan_avg", "distribution": "uniform", "scale": 1.0, "seed": null}, "class_name": "VarianceScaling"}, "dilation_rate": [1, 1], "depthwise_regularizer": null, "depth_multiplier": 1, "bias_regularizer": null, "pointwise_initializer": {"config": {"mode": "fan_avg", "distribution": "uniform", "scale": 1.0, "seed": null}, "class_name": "VarianceScaling"}, "depthwise_constraint": null, "kernel_size": [5, 5], "activation": "linear", "bias_constraint": null, "activity_regularizer": null, "padding": "same", "data_format": "channels_last", "filters": 176}, "class_name": "SeparableConv2D"}, {"name": "separable_conv_2_normal_right2_11", "inbound_nodes": [[["activation_173", 0, 0, {}]]], "config": {"use_bias": false, "trainable": true, "bias_initializer": {"config": {}, "class_name": "Zeros"}, "pointwise_constraint": null, "strides": [1, 1], "pointwise_regularizer": null, "name": "separable_conv_2_normal_right2_11", "depthwise_initializer": {"config": {"mode": "fan_avg", "distribution": "uniform", "scale": 1.0, "seed": null}, "class_name": "VarianceScaling"}, "dilation_rate": [1, 1], "depthwise_regularizer": null, "depth_multiplier": 1, "bias_regularizer": null, "pointwise_initializer": {"config": {"mode": "fan_avg", "distribution": "uniform", "scale": 1.0, "seed": null}, "class_name": "VarianceScaling"}, "depthwise_constraint": null, "kernel_size": [3, 3], "activation": "linear", "bias_constraint": null, "activity_regularizer": null, "padding": "same", "data_format": "channels_last", "filters": 176}, "class_name": "SeparableConv2D"}, {"name": "separable_conv_2_normal_left5_11", "inbound_nodes": [[["activation_175", 0, 0, {}]]], "config": {"use_bias": false, "trainable": true, "bias_initializer": {"config": {}, "class_name": "Zeros"}, "pointwise_constraint": null, "strides": [1, 1], "pointwise_regularizer": null, "name": "separable_conv_2_normal_left5_11", "depthwise_initializer": {"config": {"mode": "fan_avg", "distribution": "uniform", "scale": 1.0, "seed": null}, "class_name": "VarianceScaling"}, "dilation_rate": [1, 1], "depthwise_regularizer": null, "depth_multiplier": 1, "bias_regularizer": null, "pointwise_initializer": {"config": {"mode": "fan_avg", "distribution": "uniform", "scale": 1.0, "seed": null}, "class_name": "VarianceScaling"}, "depthwise_constraint": null, "kernel_size": [3, 3], "activation": "linear", "bias_constraint": null, "activity_regularizer": null, "padding": "same", "data_format": "channels_last", "filters": 176}, "class_name": "SeparableConv2D"}, {"name": "separable_conv_2_bn_normal_left1_11", "inbound_nodes": [[["separable_conv_2_normal_left1_11", 0, 0, {}]]], "config": {"trainable": true, "moving_mean_initializer": {"config": {}, "class_name": "Zeros"}, "momentum": 0.9997, "name": "separable_conv_2_bn_normal_left1_11", "moving_variance_initializer": {"config": {}, "class_name": "Ones"}, "beta_initializer": {"config": {}, "class_name": "Zeros"}, "gamma_regularizer": null, "beta_constraint": null, "epsilon": 0.001, "center": true, "gamma_constraint": null, "gamma_initializer": {"config": {}, "class_name": "Ones"}, "beta_regularizer": null, "axis": -1, "scale": true}, "class_name": "BatchNormalization"}, {"name": "separable_conv_2_bn_normal_right1_11", "inbound_nodes": [[["separable_conv_2_normal_right1_11", 0, 0, {}]]], "config": {"trainable": true, "moving_mean_initializer": {"config": {}, "class_name": "Zeros"}, "momentum": 0.9997, "name": "separable_conv_2_bn_normal_right1_11", "moving_variance_initializer": {"config": {}, "class_name": "Ones"}, "beta_initializer": {"config": {}, "class_name": "Zeros"}, "gamma_regularizer": null, "beta_constraint": null, "epsilon": 0.001, "center": true, "gamma_constraint": null, "gamma_initializer": {"config": {}, "class_name": "Ones"}, "beta_regularizer": null, "axis": -1, "scale": true}, "class_name": "BatchNormalization"}, {"name": "separable_conv_2_bn_normal_left2_11", "inbound_nodes": [[["separable_conv_2_normal_left2_11", 0, 0, {}]]], "config": {"trainable": true, "moving_mean_initializer": {"config": {}, "class_name": "Zeros"}, "momentum": 0.9997, "name": "separable_conv_2_bn_normal_left2_11", "moving_variance_initializer": {"config": {}, "class_name": "Ones"}, "beta_initializer": {"config": {}, "class_name": "Zeros"}, "gamma_regularizer": null, "beta_constraint": null, "epsilon": 0.001, "center": true, "gamma_constraint": null, "gamma_initializer": {"config": {}, "class_name": "Ones"}, "beta_regularizer": null, "axis": -1, "scale": true}, "class_name": "BatchNormalization"}, {"name": "separable_conv_2_bn_normal_right2_11", "inbound_nodes": [[["separable_conv_2_normal_right2_11", 0, 0, {}]]], "config": {"trainable": true, "moving_mean_initializer": {"config": {}, "class_name": "Zeros"}, "momentum": 0.9997, "name": "separable_conv_2_bn_normal_right2_11", "moving_variance_initializer": {"config": {}, "class_name": "Ones"}, "beta_initializer": {"config": {}, "class_name": "Zeros"}, "gamma_regularizer": null, "beta_constraint": null, "epsilon": 0.001, "center": true, "gamma_constraint": null, "gamma_initializer": {"config": {}, "class_name": "Ones"}, "beta_regularizer": null, "axis": -1, "scale": true}, "class_name": "BatchNormalization"}, {"name": "normal_left3_11", "inbound_nodes": [[["normal_bn_1_11", 0, 0, {}]]], "config": {"trainable": true, "strides": [1, 1], "name": "normal_left3_11", "pool_size": [3, 3], "padding": "same", "data_format": "channels_last"}, "class_name": "AveragePooling2D"}, {"name": "normal_left4_11", "inbound_nodes": [[["adjust_bn_11", 0, 0, {}]]], "config": {"trainable": true, "strides": [1, 1], "name": "normal_left4_11", "pool_size": [3, 3], "padding": "same", "data_format": "channels_last"}, "class_name": "AveragePooling2D"}, {"name": "normal_right4_11", "inbound_nodes": [[["adjust_bn_11", 0, 0, {}]]], "config": {"trainable": true, "strides": [1, 1], "name": "normal_right4_11", "pool_size": [3, 3], "padding": "same", "data_format": "channels_last"}, "class_name": "AveragePooling2D"}, {"name": "separable_conv_2_bn_normal_left5_11", "inbound_nodes": [[["separable_conv_2_normal_left5_11", 0, 0, {}]]], "config": {"trainable": true, "moving_mean_initializer": {"config": {}, "class_name": "Zeros"}, "momentum": 0.9997, "name": "separable_conv_2_bn_normal_left5_11", "moving_variance_initializer": {"config": {}, "class_name": "Ones"}, "beta_initializer": {"config": {}, "class_name": "Zeros"}, "gamma_regularizer": null, "beta_constraint": null, "epsilon": 0.001, "center": true, "gamma_constraint": null, "gamma_initializer": {"config": {}, "class_name": "Ones"}, "beta_regularizer": null, "axis": -1, "scale": true}, "class_name": "BatchNormalization"}, {"name": "normal_add_1_11", "inbound_nodes": [[["separable_conv_2_bn_normal_left1_11", 0, 0, {}], ["separable_conv_2_bn_normal_right1_11", 0, 0, {}]]], "config": {"name": "normal_add_1_11", "trainable": true}, "class_name": "Add"}, {"name": "normal_add_2_11", "inbound_nodes": [[["separable_conv_2_bn_normal_left2_11", 0, 0, {}], ["separable_conv_2_bn_normal_right2_11", 0, 0, {}]]], "config": {"name": "normal_add_2_11", "trainable": true}, "class_name": "Add"}, {"name": "normal_add_3_11", "inbound_nodes": [[["normal_left3_11", 0, 0, {}], ["adjust_bn_11", 0, 0, {}]]], "config": {"name": "normal_add_3_11", "trainable": true}, "class_name": "Add"}, {"name": "normal_add_4_11", "inbound_nodes": [[["normal_left4_11", 0, 0, {}], ["normal_right4_11", 0, 0, {}]]], "config": {"name": "normal_add_4_11", "trainable": true}, "class_name": "Add"}, {"name": "normal_add_5_11", "inbound_nodes": [[["separable_conv_2_bn_normal_left5_11", 0, 0, {}], ["normal_bn_1_11", 0, 0, {}]]], "config": {"name": "normal_add_5_11", "trainable": true}, "class_name": "Add"}, {"name": "normal_concat_11", "inbound_nodes": [[["adjust_bn_11", 0, 0, {}], ["normal_add_1_11", 0, 0, {}], ["normal_add_2_11", 0, 0, {}], ["normal_add_3_11", 0, 0, {}], ["normal_add_4_11", 0, 0, {}], ["normal_add_5_11", 0, 0, {}]]], "config": {"name": "normal_concat_11", "axis": -1, "trainable": true}, "class_name": "Concatenate"}, {"name": "activation_176", "inbound_nodes": [[["normal_concat_10", 0, 0, {}]]], "config": {"name": "activation_176", "activation": "relu", "trainable": true}, "class_name": "Activation"}, {"name": "activation_177", "inbound_nodes": [[["normal_concat_11", 0, 0, {}]]], "config": {"name": "activation_177", "activation": "relu", "trainable": true}, "class_name": "Activation"}, {"name": "adjust_conv_projection_12", "inbound_nodes": [[["activation_176", 0, 0, {}]]], "config": {"use_bias": false, "trainable": true, "bias_initializer": {"config": {}, "class_name": "Zeros"}, "strides": [1, 1], "kernel_constraint": null, "name": "adjust_conv_projection_12", "kernel_regularizer": null, "dilation_rate": [1, 1], "bias_regularizer": null, "kernel_initializer": {"config": {"mode": "fan_in", "distribution": "normal", "scale": 2.0, "seed": null}, "class_name": "VarianceScaling"}, "kernel_size": [1, 1], "activation": "linear", "bias_constraint": null, "activity_regularizer": null, "padding": "same", "data_format": "channels_last", "filters": 176}, "class_name": "Conv2D"}, {"name": "normal_conv_1_12", "inbound_nodes": [[["activation_177", 0, 0, {}]]], "config": {"use_bias": false, "trainable": true, "bias_initializer": {"config": {}, "class_name": "Zeros"}, "strides": [1, 1], "kernel_constraint": null, "name": "normal_conv_1_12", "kernel_regularizer": null, "dilation_rate": [1, 1], "bias_regularizer": null, "kernel_initializer": {"config": {"mode": "fan_in", "distribution": "normal", "scale": 2.0, "seed": null}, "class_name": "VarianceScaling"}, "kernel_size": [1, 1], "activation": "linear", "bias_constraint": null, "activity_regularizer": null, "padding": "same", "data_format": "channels_last", "filters": 176}, "class_name": "Conv2D"}, {"name": "adjust_bn_12", "inbound_nodes": [[["adjust_conv_projection_12", 0, 0, {}]]], "config": {"trainable": true, "moving_mean_initializer": {"config": {}, "class_name": "Zeros"}, "momentum": 0.9997, "name": "adjust_bn_12", "moving_variance_initializer": {"config": {}, "class_name": "Ones"}, "beta_initializer": {"config": {}, "class_name": "Zeros"}, "gamma_regularizer": null, "beta_constraint": null, "epsilon": 0.001, "center": true, "gamma_constraint": null, "gamma_initializer": {"config": {}, "class_name": "Ones"}, "beta_regularizer": null, "axis": -1, "scale": true}, "class_name": "BatchNormalization"}, {"name": "normal_bn_1_12", "inbound_nodes": [[["normal_conv_1_12", 0, 0, {}]]], "config": {"trainable": true, "moving_mean_initializer": {"config": {}, "class_name": "Zeros"}, "momentum": 0.9997, "name": "normal_bn_1_12", "moving_variance_initializer": {"config": {}, "class_name": "Ones"}, "beta_initializer": {"config": {}, "class_name": "Zeros"}, "gamma_regularizer": null, "beta_constraint": null, "epsilon": 0.001, "center": true, "gamma_constraint": null, "gamma_initializer": {"config": {}, "class_name": "Ones"}, "beta_regularizer": null, "axis": -1, "scale": true}, "class_name": "BatchNormalization"}, {"name": "activation_178", "inbound_nodes": [[["normal_bn_1_12", 0, 0, {}]]], "config": {"name": "activation_178", "activation": "relu", "trainable": true}, "class_name": "Activation"}, {"name": "activation_180", "inbound_nodes": [[["adjust_bn_12", 0, 0, {}]]], "config": {"name": "activation_180", "activation": "relu", "trainable": true}, "class_name": "Activation"}, {"name": "activation_182", "inbound_nodes": [[["adjust_bn_12", 0, 0, {}]]], "config": {"name": "activation_182", "activation": "relu", "trainable": true}, "class_name": "Activation"}, {"name": "activation_184", "inbound_nodes": [[["adjust_bn_12", 0, 0, {}]]], "config": {"name": "activation_184", "activation": "relu", "trainable": true}, "class_name": "Activation"}, {"name": "activation_186", "inbound_nodes": [[["normal_bn_1_12", 0, 0, {}]]], "config": {"name": "activation_186", "activation": "relu", "trainable": true}, "class_name": "Activation"}, {"name": "separable_conv_1_normal_left1_12", "inbound_nodes": [[["activation_178", 0, 0, {}]]], "config": {"use_bias": false, "trainable": true, "bias_initializer": {"config": {}, "class_name": "Zeros"}, "pointwise_constraint": null, "strides": [1, 1], "pointwise_regularizer": null, "name": "separable_conv_1_normal_left1_12", "depthwise_initializer": {"config": {"mode": "fan_avg", "distribution": "uniform", "scale": 1.0, "seed": null}, "class_name": "VarianceScaling"}, "dilation_rate": [1, 1], "depthwise_regularizer": null, "depth_multiplier": 1, "bias_regularizer": null, "pointwise_initializer": {"config": {"mode": "fan_avg", "distribution": "uniform", "scale": 1.0, "seed": null}, "class_name": "VarianceScaling"}, "depthwise_constraint": null, "kernel_size": [5, 5], "activation": "linear", "bias_constraint": null, "activity_regularizer": null, "padding": "same", "data_format": "channels_last", "filters": 176}, "class_name": "SeparableConv2D"}, {"name": "separable_conv_1_normal_right1_12", "inbound_nodes": [[["activation_180", 0, 0, {}]]], "config": {"use_bias": false, "trainable": true, "bias_initializer": {"config": {}, "class_name": "Zeros"}, "pointwise_constraint": null, "strides": [1, 1], "pointwise_regularizer": null, "name": "separable_conv_1_normal_right1_12", "depthwise_initializer": {"config": {"mode": "fan_avg", "distribution": "uniform", "scale": 1.0, "seed": null}, "class_name": "VarianceScaling"}, "dilation_rate": [1, 1], "depthwise_regularizer": null, "depth_multiplier": 1, "bias_regularizer": null, "pointwise_initializer": {"config": {"mode": "fan_avg", "distribution": "uniform", "scale": 1.0, "seed": null}, "class_name": "VarianceScaling"}, "depthwise_constraint": null, "kernel_size": [3, 3], "activation": "linear", "bias_constraint": null, "activity_regularizer": null, "padding": "same", "data_format": "channels_last", "filters": 176}, "class_name": "SeparableConv2D"}, {"name": "separable_conv_1_normal_left2_12", "inbound_nodes": [[["activation_182", 0, 0, {}]]], "config": {"use_bias": false, "trainable": true, "bias_initializer": {"config": {}, "class_name": "Zeros"}, "pointwise_constraint": null, "strides": [1, 1], "pointwise_regularizer": null, "name": "separable_conv_1_normal_left2_12", "depthwise_initializer": {"config": {"mode": "fan_avg", "distribution": "uniform", "scale": 1.0, "seed": null}, "class_name": "VarianceScaling"}, "dilation_rate": [1, 1], "depthwise_regularizer": null, "depth_multiplier": 1, "bias_regularizer": null, "pointwise_initializer": {"config": {"mode": "fan_avg", "distribution": "uniform", "scale": 1.0, "seed": null}, "class_name": "VarianceScaling"}, "depthwise_constraint": null, "kernel_size": [5, 5], "activation": "linear", "bias_constraint": null, "activity_regularizer": null, "padding": "same", "data_format": "channels_last", "filters": 176}, "class_name": "SeparableConv2D"}, {"name": "separable_conv_1_normal_right2_12", "inbound_nodes": [[["activation_184", 0, 0, {}]]], "config": {"use_bias": false, "trainable": true, "bias_initializer": {"config": {}, "class_name": "Zeros"}, "pointwise_constraint": null, "strides": [1, 1], "pointwise_regularizer": null, "name": "separable_conv_1_normal_right2_12", "depthwise_initializer": {"config": {"mode": "fan_avg", "distribution": "uniform", "scale": 1.0, "seed": null}, "class_name": "VarianceScaling"}, "dilation_rate": [1, 1], "depthwise_regularizer": null, "depth_multiplier": 1, "bias_regularizer": null, "pointwise_initializer": {"config": {"mode": "fan_avg", "distribution": "uniform", "scale": 1.0, "seed": null}, "class_name": "VarianceScaling"}, "depthwise_constraint": null, "kernel_size": [3, 3], "activation": "linear", "bias_constraint": null, "activity_regularizer": null, "padding": "same", "data_format": "channels_last", "filters": 176}, "class_name": "SeparableConv2D"}, {"name": "separable_conv_1_normal_left5_12", "inbound_nodes": [[["activation_186", 0, 0, {}]]], "config": {"use_bias": false, "trainable": true, "bias_initializer": {"config": {}, "class_name": "Zeros"}, "pointwise_constraint": null, "strides": [1, 1], "pointwise_regularizer": null, "name": "separable_conv_1_normal_left5_12", "depthwise_initializer": {"config": {"mode": "fan_avg", "distribution": "uniform", "scale": 1.0, "seed": null}, "class_name": "VarianceScaling"}, "dilation_rate": [1, 1], "depthwise_regularizer": null, "depth_multiplier": 1, "bias_regularizer": null, "pointwise_initializer": {"config": {"mode": "fan_avg", "distribution": "uniform", "scale": 1.0, "seed": null}, "class_name": "VarianceScaling"}, "depthwise_constraint": null, "kernel_size": [3, 3], "activation": "linear", "bias_constraint": null, "activity_regularizer": null, "padding": "same", "data_format": "channels_last", "filters": 176}, "class_name": "SeparableConv2D"}, {"name": "separable_conv_1_bn_normal_left1_12", "inbound_nodes": [[["separable_conv_1_normal_left1_12", 0, 0, {}]]], "config": {"trainable": true, "moving_mean_initializer": {"config": {}, "class_name": "Zeros"}, "momentum": 0.9997, "name": "separable_conv_1_bn_normal_left1_12", "moving_variance_initializer": {"config": {}, "class_name": "Ones"}, "beta_initializer": {"config": {}, "class_name": "Zeros"}, "gamma_regularizer": null, "beta_constraint": null, "epsilon": 0.001, "center": true, "gamma_constraint": null, "gamma_initializer": {"config": {}, "class_name": "Ones"}, "beta_regularizer": null, "axis": -1, "scale": true}, "class_name": "BatchNormalization"}, {"name": "separable_conv_1_bn_normal_right1_12", "inbound_nodes": [[["separable_conv_1_normal_right1_12", 0, 0, {}]]], "config": {"trainable": true, "moving_mean_initializer": {"config": {}, "class_name": "Zeros"}, "momentum": 0.9997, "name": "separable_conv_1_bn_normal_right1_12", "moving_variance_initializer": {"config": {}, "class_name": "Ones"}, "beta_initializer": {"config": {}, "class_name": "Zeros"}, "gamma_regularizer": null, "beta_constraint": null, "epsilon": 0.001, "center": true, "gamma_constraint": null, "gamma_initializer": {"config": {}, "class_name": "Ones"}, "beta_regularizer": null, "axis": -1, "scale": true}, "class_name": "BatchNormalization"}, {"name": "separable_conv_1_bn_normal_left2_12", "inbound_nodes": [[["separable_conv_1_normal_left2_12", 0, 0, {}]]], "config": {"trainable": true, "moving_mean_initializer": {"config": {}, "class_name": "Zeros"}, "momentum": 0.9997, "name": "separable_conv_1_bn_normal_left2_12", "moving_variance_initializer": {"config": {}, "class_name": "Ones"}, "beta_initializer": {"config": {}, "class_name": "Zeros"}, "gamma_regularizer": null, "beta_constraint": null, "epsilon": 0.001, "center": true, "gamma_constraint": null, "gamma_initializer": {"config": {}, "class_name": "Ones"}, "beta_regularizer": null, "axis": -1, "scale": true}, "class_name": "BatchNormalization"}, {"name": "separable_conv_1_bn_normal_right2_12", "inbound_nodes": [[["separable_conv_1_normal_right2_12", 0, 0, {}]]], "config": {"trainable": true, "moving_mean_initializer": {"config": {}, "class_name": "Zeros"}, "momentum": 0.9997, "name": "separable_conv_1_bn_normal_right2_12", "moving_variance_initializer": {"config": {}, "class_name": "Ones"}, "beta_initializer": {"config": {}, "class_name": "Zeros"}, "gamma_regularizer": null, "beta_constraint": null, "epsilon": 0.001, "center": true, "gamma_constraint": null, "gamma_initializer": {"config": {}, "class_name": "Ones"}, "beta_regularizer": null, "axis": -1, "scale": true}, "class_name": "BatchNormalization"}, {"name": "separable_conv_1_bn_normal_left5_12", "inbound_nodes": [[["separable_conv_1_normal_left5_12", 0, 0, {}]]], "config": {"trainable": true, "moving_mean_initializer": {"config": {}, "class_name": "Zeros"}, "momentum": 0.9997, "name": "separable_conv_1_bn_normal_left5_12", "moving_variance_initializer": {"config": {}, "class_name": "Ones"}, "beta_initializer": {"config": {}, "class_name": "Zeros"}, "gamma_regularizer": null, "beta_constraint": null, "epsilon": 0.001, "center": true, "gamma_constraint": null, "gamma_initializer": {"config": {}, "class_name": "Ones"}, "beta_regularizer": null, "axis": -1, "scale": true}, "class_name": "BatchNormalization"}, {"name": "activation_179", "inbound_nodes": [[["separable_conv_1_bn_normal_left1_12", 0, 0, {}]]], "config": {"name": "activation_179", "activation": "relu", "trainable": true}, "class_name": "Activation"}, {"name": "activation_181", "inbound_nodes": [[["separable_conv_1_bn_normal_right1_12", 0, 0, {}]]], "config": {"name": "activation_181", "activation": "relu", "trainable": true}, "class_name": "Activation"}, {"name": "activation_183", "inbound_nodes": [[["separable_conv_1_bn_normal_left2_12", 0, 0, {}]]], "config": {"name": "activation_183", "activation": "relu", "trainable": true}, "class_name": "Activation"}, {"name": "activation_185", "inbound_nodes": [[["separable_conv_1_bn_normal_right2_12", 0, 0, {}]]], "config": {"name": "activation_185", "activation": "relu", "trainable": true}, "class_name": "Activation"}, {"name": "activation_187", "inbound_nodes": [[["separable_conv_1_bn_normal_left5_12", 0, 0, {}]]], "config": {"name": "activation_187", "activation": "relu", "trainable": true}, "class_name": "Activation"}, {"name": "separable_conv_2_normal_left1_12", "inbound_nodes": [[["activation_179", 0, 0, {}]]], "config": {"use_bias": false, "trainable": true, "bias_initializer": {"config": {}, "class_name": "Zeros"}, "pointwise_constraint": null, "strides": [1, 1], "pointwise_regularizer": null, "name": "separable_conv_2_normal_left1_12", "depthwise_initializer": {"config": {"mode": "fan_avg", "distribution": "uniform", "scale": 1.0, "seed": null}, "class_name": "VarianceScaling"}, "dilation_rate": [1, 1], "depthwise_regularizer": null, "depth_multiplier": 1, "bias_regularizer": null, "pointwise_initializer": {"config": {"mode": "fan_avg", "distribution": "uniform", "scale": 1.0, "seed": null}, "class_name": "VarianceScaling"}, "depthwise_constraint": null, "kernel_size": [5, 5], "activation": "linear", "bias_constraint": null, "activity_regularizer": null, "padding": "same", "data_format": "channels_last", "filters": 176}, "class_name": "SeparableConv2D"}, {"name": "separable_conv_2_normal_right1_12", "inbound_nodes": [[["activation_181", 0, 0, {}]]], "config": {"use_bias": false, "trainable": true, "bias_initializer": {"config": {}, "class_name": "Zeros"}, "pointwise_constraint": null, "strides": [1, 1], "pointwise_regularizer": null, "name": "separable_conv_2_normal_right1_12", "depthwise_initializer": {"config": {"mode": "fan_avg", "distribution": "uniform", "scale": 1.0, "seed": null}, "class_name": "VarianceScaling"}, "dilation_rate": [1, 1], "depthwise_regularizer": null, "depth_multiplier": 1, "bias_regularizer": null, "pointwise_initializer": {"config": {"mode": "fan_avg", "distribution": "uniform", "scale": 1.0, "seed": null}, "class_name": "VarianceScaling"}, "depthwise_constraint": null, "kernel_size": [3, 3], "activation": "linear", "bias_constraint": null, "activity_regularizer": null, "padding": "same", "data_format": "channels_last", "filters": 176}, "class_name": "SeparableConv2D"}, {"name": "separable_conv_2_normal_left2_12", "inbound_nodes": [[["activation_183", 0, 0, {}]]], "config": {"use_bias": false, "trainable": true, "bias_initializer": {"config": {}, "class_name": "Zeros"}, "pointwise_constraint": null, "strides": [1, 1], "pointwise_regularizer": null, "name": "separable_conv_2_normal_left2_12", "depthwise_initializer": {"config": {"mode": "fan_avg", "distribution": "uniform", "scale": 1.0, "seed": null}, "class_name": "VarianceScaling"}, "dilation_rate": [1, 1], "depthwise_regularizer": null, "depth_multiplier": 1, "bias_regularizer": null, "pointwise_initializer": {"config": {"mode": "fan_avg", "distribution": "uniform", "scale": 1.0, "seed": null}, "class_name": "VarianceScaling"}, "depthwise_constraint": null, "kernel_size": [5, 5], "activation": "linear", "bias_constraint": null, "activity_regularizer": null, "padding": "same", "data_format": "channels_last", "filters": 176}, "class_name": "SeparableConv2D"}, {"name": "separable_conv_2_normal_right2_12", "inbound_nodes": [[["activation_185", 0, 0, {}]]], "config": {"use_bias": false, "trainable": true, "bias_initializer": {"config": {}, "class_name": "Zeros"}, "pointwise_constraint": null, "strides": [1, 1], "pointwise_regularizer": null, "name": "separable_conv_2_normal_right2_12", "depthwise_initializer": {"config": {"mode": "fan_avg", "distribution": "uniform", "scale": 1.0, "seed": null}, "class_name": "VarianceScaling"}, "dilation_rate": [1, 1], "depthwise_regularizer": null, "depth_multiplier": 1, "bias_regularizer": null, "pointwise_initializer": {"config": {"mode": "fan_avg", "distribution": "uniform", "scale": 1.0, "seed": null}, "class_name": "VarianceScaling"}, "depthwise_constraint": null, "kernel_size": [3, 3], "activation": "linear", "bias_constraint": null, "activity_regularizer": null, "padding": "same", "data_format": "channels_last", "filters": 176}, "class_name": "SeparableConv2D"}, {"name": "separable_conv_2_normal_left5_12", "inbound_nodes": [[["activation_187", 0, 0, {}]]], "config": {"use_bias": false, "trainable": true, "bias_initializer": {"config": {}, "class_name": "Zeros"}, "pointwise_constraint": null, "strides": [1, 1], "pointwise_regularizer": null, "name": "separable_conv_2_normal_left5_12", "depthwise_initializer": {"config": {"mode": "fan_avg", "distribution": "uniform", "scale": 1.0, "seed": null}, "class_name": "VarianceScaling"}, "dilation_rate": [1, 1], "depthwise_regularizer": null, "depth_multiplier": 1, "bias_regularizer": null, "pointwise_initializer": {"config": {"mode": "fan_avg", "distribution": "uniform", "scale": 1.0, "seed": null}, "class_name": "VarianceScaling"}, "depthwise_constraint": null, "kernel_size": [3, 3], "activation": "linear", "bias_constraint": null, "activity_regularizer": null, "padding": "same", "data_format": "channels_last", "filters": 176}, "class_name": "SeparableConv2D"}, {"name": "separable_conv_2_bn_normal_left1_12", "inbound_nodes": [[["separable_conv_2_normal_left1_12", 0, 0, {}]]], "config": {"trainable": true, "moving_mean_initializer": {"config": {}, "class_name": "Zeros"}, "momentum": 0.9997, "name": "separable_conv_2_bn_normal_left1_12", "moving_variance_initializer": {"config": {}, "class_name": "Ones"}, "beta_initializer": {"config": {}, "class_name": "Zeros"}, "gamma_regularizer": null, "beta_constraint": null, "epsilon": 0.001, "center": true, "gamma_constraint": null, "gamma_initializer": {"config": {}, "class_name": "Ones"}, "beta_regularizer": null, "axis": -1, "scale": true}, "class_name": "BatchNormalization"}, {"name": "separable_conv_2_bn_normal_right1_12", "inbound_nodes": [[["separable_conv_2_normal_right1_12", 0, 0, {}]]], "config": {"trainable": true, "moving_mean_initializer": {"config": {}, "class_name": "Zeros"}, "momentum": 0.9997, "name": "separable_conv_2_bn_normal_right1_12", "moving_variance_initializer": {"config": {}, "class_name": "Ones"}, "beta_initializer": {"config": {}, "class_name": "Zeros"}, "gamma_regularizer": null, "beta_constraint": null, "epsilon": 0.001, "center": true, "gamma_constraint": null, "gamma_initializer": {"config": {}, "class_name": "Ones"}, "beta_regularizer": null, "axis": -1, "scale": true}, "class_name": "BatchNormalization"}, {"name": "separable_conv_2_bn_normal_left2_12", "inbound_nodes": [[["separable_conv_2_normal_left2_12", 0, 0, {}]]], "config": {"trainable": true, "moving_mean_initializer": {"config": {}, "class_name": "Zeros"}, "momentum": 0.9997, "name": "separable_conv_2_bn_normal_left2_12", "moving_variance_initializer": {"config": {}, "class_name": "Ones"}, "beta_initializer": {"config": {}, "class_name": "Zeros"}, "gamma_regularizer": null, "beta_constraint": null, "epsilon": 0.001, "center": true, "gamma_constraint": null, "gamma_initializer": {"config": {}, "class_name": "Ones"}, "beta_regularizer": null, "axis": -1, "scale": true}, "class_name": "BatchNormalization"}, {"name": "separable_conv_2_bn_normal_right2_12", "inbound_nodes": [[["separable_conv_2_normal_right2_12", 0, 0, {}]]], "config": {"trainable": true, "moving_mean_initializer": {"config": {}, "class_name": "Zeros"}, "momentum": 0.9997, "name": "separable_conv_2_bn_normal_right2_12", "moving_variance_initializer": {"config": {}, "class_name": "Ones"}, "beta_initializer": {"config": {}, "class_name": "Zeros"}, "gamma_regularizer": null, "beta_constraint": null, "epsilon": 0.001, "center": true, "gamma_constraint": null, "gamma_initializer": {"config": {}, "class_name": "Ones"}, "beta_regularizer": null, "axis": -1, "scale": true}, "class_name": "BatchNormalization"}, {"name": "normal_left3_12", "inbound_nodes": [[["normal_bn_1_12", 0, 0, {}]]], "config": {"trainable": true, "strides": [1, 1], "name": "normal_left3_12", "pool_size": [3, 3], "padding": "same", "data_format": "channels_last"}, "class_name": "AveragePooling2D"}, {"name": "normal_left4_12", "inbound_nodes": [[["adjust_bn_12", 0, 0, {}]]], "config": {"trainable": true, "strides": [1, 1], "name": "normal_left4_12", "pool_size": [3, 3], "padding": "same", "data_format": "channels_last"}, "class_name": "AveragePooling2D"}, {"name": "normal_right4_12", "inbound_nodes": [[["adjust_bn_12", 0, 0, {}]]], "config": {"trainable": true, "strides": [1, 1], "name": "normal_right4_12", "pool_size": [3, 3], "padding": "same", "data_format": "channels_last"}, "class_name": "AveragePooling2D"}, {"name": "separable_conv_2_bn_normal_left5_12", "inbound_nodes": [[["separable_conv_2_normal_left5_12", 0, 0, {}]]], "config": {"trainable": true, "moving_mean_initializer": {"config": {}, "class_name": "Zeros"}, "momentum": 0.9997, "name": "separable_conv_2_bn_normal_left5_12", "moving_variance_initializer": {"config": {}, "class_name": "Ones"}, "beta_initializer": {"config": {}, "class_name": "Zeros"}, "gamma_regularizer": null, "beta_constraint": null, "epsilon": 0.001, "center": true, "gamma_constraint": null, "gamma_initializer": {"config": {}, "class_name": "Ones"}, "beta_regularizer": null, "axis": -1, "scale": true}, "class_name": "BatchNormalization"}, {"name": "normal_add_1_12", "inbound_nodes": [[["separable_conv_2_bn_normal_left1_12", 0, 0, {}], ["separable_conv_2_bn_normal_right1_12", 0, 0, {}]]], "config": {"name": "normal_add_1_12", "trainable": true}, "class_name": "Add"}, {"name": "normal_add_2_12", "inbound_nodes": [[["separable_conv_2_bn_normal_left2_12", 0, 0, {}], ["separable_conv_2_bn_normal_right2_12", 0, 0, {}]]], "config": {"name": "normal_add_2_12", "trainable": true}, "class_name": "Add"}, {"name": "normal_add_3_12", "inbound_nodes": [[["normal_left3_12", 0, 0, {}], ["adjust_bn_12", 0, 0, {}]]], "config": {"name": "normal_add_3_12", "trainable": true}, "class_name": "Add"}, {"name": "normal_add_4_12", "inbound_nodes": [[["normal_left4_12", 0, 0, {}], ["normal_right4_12", 0, 0, {}]]], "config": {"name": "normal_add_4_12", "trainable": true}, "class_name": "Add"}, {"name": "normal_add_5_12", "inbound_nodes": [[["separable_conv_2_bn_normal_left5_12", 0, 0, {}], ["normal_bn_1_12", 0, 0, {}]]], "config": {"name": "normal_add_5_12", "trainable": true}, "class_name": "Add"}, {"name": "normal_concat_12", "inbound_nodes": [[["adjust_bn_12", 0, 0, {}], ["normal_add_1_12", 0, 0, {}], ["normal_add_2_12", 0, 0, {}], ["normal_add_3_12", 0, 0, {}], ["normal_add_4_12", 0, 0, {}], ["normal_add_5_12", 0, 0, {}]]], "config": {"name": "normal_concat_12", "axis": -1, "trainable": true}, "class_name": "Concatenate"}, {"name": "activation_188", "inbound_nodes": [[["normal_concat_12", 0, 0, {}]]], "config": {"name": "activation_188", "activation": "relu", "trainable": true}, "class_name": "Activation"}, {"name": "global_average_pooling2d_1", "inbound_nodes": [[["activation_188", 0, 0, {}]]], "config": {"name": "global_average_pooling2d_1", "trainable": true, "data_format": "channels_last"}, "class_name": "GlobalAveragePooling2D"}, {"name": "dense_1", "inbound_nodes": [[["global_average_pooling2d_1", 0, 0, {}]]], "config": {"use_bias": true, "trainable": true, "bias_initializer": {"config": {}, "class_name": "Zeros"}, "kernel_constraint": null, "name": "dense_1", "kernel_regularizer": null, "bias_regularizer": null, "units": 1024, "kernel_initializer": {"config": {"mode": "fan_avg", "distribution": "uniform", "scale": 1.0, "seed": null}, "class_name": "VarianceScaling"}, "activation": "relu", "bias_constraint": null, "activity_regularizer": null}, "class_name": "Dense"}, {"name": "dropout_1", "inbound_nodes": [[["dense_1", 0, 0, {}]]], "config": {"name": "dropout_1", "seed": null, "trainable": true, "rate": 0.5, "noise_shape": null}, "class_name": "Dropout"}, {"name": "dense_2", "inbound_nodes": [[["dropout_1", 0, 0, {}]]], "config": {"use_bias": true, "trainable": true, "bias_initializer": {"config": {}, "class_name": "Zeros"}, "kernel_constraint": null, "name": "dense_2", "kernel_regularizer": null, "bias_regularizer": null, "units": 2, "kernel_initializer": {"config": {"mode": "fan_avg", "distribution": "uniform", "scale": 1.0, "seed": null}, "class_name": "VarianceScaling"}, "activation": "softmax", "bias_constraint": null, "activity_regularizer": null}, "class_name": "Dense"}], "input_layers": [["input_1", 0, 0]], "output_layers": [["dense_2", 0, 0]]}, "class_name": "Model"}}}